#loc = loc("/home/admin/zy429782/fx_experiments/torch_aot_tool/dynamicLib_7622_gpu_torch260/pa/cpafh3iopr22xn2arqldkphlfi47ai4yloiifdx4ptxxfrm7xer6.py":18:0)
module {
  tt.func public @triton_(%arg0: !tt.ptr<f64> {tt.divisibility = 16 : i32} loc("/home/admin/zy429782/fx_experiments/torch_aot_tool/dynamicLib_7622_gpu_torch260/pa/cpafh3iopr22xn2arqldkphlfi47ai4yloiifdx4ptxxfrm7xer6.py":18:0), %arg1: !tt.ptr<f32> {tt.divisibility = 16 : i32} loc("/home/admin/zy429782/fx_experiments/torch_aot_tool/dynamicLib_7622_gpu_torch260/pa/cpafh3iopr22xn2arqldkphlfi47ai4yloiifdx4ptxxfrm7xer6.py":18:0), %arg2: !tt.ptr<f32> {tt.divisibility = 16 : i32} loc("/home/admin/zy429782/fx_experiments/torch_aot_tool/dynamicLib_7622_gpu_torch260/pa/cpafh3iopr22xn2arqldkphlfi47ai4yloiifdx4ptxxfrm7xer6.py":18:0), %arg3: i32 loc("/home/admin/zy429782/fx_experiments/torch_aot_tool/dynamicLib_7622_gpu_torch260/pa/cpafh3iopr22xn2arqldkphlfi47ai4yloiifdx4ptxxfrm7xer6.py":18:0)) attributes {noinline = false} {
    %cst = arith.constant dense<5.000000e+01> : tensor<1024xf64> loc(#loc1)
    %cst_0 = arith.constant dense<0.000000e+00> : tensor<1024xf32> loc(#loc1)
    %cst_1 = arith.constant dense<50> : tensor<1024xi32> loc(#loc1)
    %cst_2 = arith.constant dense<172> : tensor<1024xi32> loc(#loc1)
    %c1024_i32 = arith.constant 1024 : i32 loc(#loc1)
    %0 = tt.get_program_id x : i32 loc(#loc2)
    %1 = arith.muli %0, %c1024_i32 : i32 loc(#loc3)
    %2 = tt.make_range {end = 1024 : i32, start = 0 : i32} : tensor<1024xi32> loc(#loc4)
    %3 = tt.splat %1 : i32 -> tensor<1024xi32> loc(#loc5)
    %4 = arith.addi %3, %2 : tensor<1024xi32> loc(#loc5)
    %5 = tt.splat %arg3 : i32 -> tensor<1024xi32> loc(#loc6)
    %6 = arith.cmpi slt, %4, %5 : tensor<1024xi32> loc(#loc6)
    %7 = arith.divsi %4, %cst_2 : tensor<1024xi32> loc(#loc7)
    %8 = arith.divsi %7, %cst_1 : tensor<1024xi32> loc(#loc8)
    %9 = tt.splat %arg0 : !tt.ptr<f64> -> tensor<1024x!tt.ptr<f64>> loc(#loc9)
    %10 = tt.addptr %9, %8 : tensor<1024x!tt.ptr<f64>>, tensor<1024xi32> loc(#loc9)
    %11 = tt.load %10, %6 evictionPolicy = evict_last : tensor<1024x!tt.ptr<f64>> loc(#loc10)
    %12 = tt.splat %arg1 : !tt.ptr<f32> -> tensor<1024x!tt.ptr<f32>> loc(#loc11)
    %13 = tt.addptr %12, %4 : tensor<1024x!tt.ptr<f32>>, tensor<1024xi32> loc(#loc11)
    %14 = tt.load %13, %6 : tensor<1024x!tt.ptr<f32>> loc(#loc12)
    %15 = arith.cmpf olt, %11, %cst : tensor<1024xf64> loc(#loc25)
    %16 = arith.cmpf une, %11, %11 : tensor<1024xf64> loc(#loc26)
    %17 = arith.ori %15, %16 : tensor<1024xi1> loc(#loc27)
    %18 = arith.select %17, %11, %cst : tensor<1024xi1>, tensor<1024xf64> loc(#loc28)
    %19 = arith.remsi %7, %cst_1 : tensor<1024xi32> loc(#loc18)
    %20 = arith.sitofp %19 : tensor<1024xi32> to tensor<1024xf64> loc(#loc19)
    %21 = arith.cmpf olt, %20, %18 : tensor<1024xf64> loc(#loc20)
    %22 = arith.select %21, %14, %cst_0 : tensor<1024xi1>, tensor<1024xf32> loc(#loc21)
    %23 = tt.splat %arg2 : !tt.ptr<f32> -> tensor<1024x!tt.ptr<f32>> loc(#loc22)
    %24 = tt.addptr %23, %4 : tensor<1024x!tt.ptr<f32>>, tensor<1024xi32> loc(#loc22)
    tt.store %24, %22, %6 : tensor<1024x!tt.ptr<f32>> loc(#loc23)
    tt.return loc(#loc24)
  } loc(#loc)
} loc(#loc)
#loc1 = loc(unknown)
#loc2 = loc("/home/admin/zy429782/fx_experiments/torch_aot_tool/dynamicLib_7622_gpu_torch260/pa/cpafh3iopr22xn2arqldkphlfi47ai4yloiifdx4ptxxfrm7xer6.py":19:28)
#loc3 = loc("/home/admin/zy429782/fx_experiments/torch_aot_tool/dynamicLib_7622_gpu_torch260/pa/cpafh3iopr22xn2arqldkphlfi47ai4yloiifdx4ptxxfrm7xer6.py":19:33)
#loc4 = loc("/home/admin/zy429782/fx_experiments/torch_aot_tool/dynamicLib_7622_gpu_torch260/pa/cpafh3iopr22xn2arqldkphlfi47ai4yloiifdx4ptxxfrm7xer6.py":20:36)
#loc5 = loc("/home/admin/zy429782/fx_experiments/torch_aot_tool/dynamicLib_7622_gpu_torch260/pa/cpafh3iopr22xn2arqldkphlfi47ai4yloiifdx4ptxxfrm7xer6.py":20:23)
#loc6 = loc("/home/admin/zy429782/fx_experiments/torch_aot_tool/dynamicLib_7622_gpu_torch260/pa/cpafh3iopr22xn2arqldkphlfi47ai4yloiifdx4ptxxfrm7xer6.py":21:21)
#loc7 = loc("/home/admin/zy429782/fx_experiments/torch_aot_tool/dynamicLib_7622_gpu_torch260/pa/cpafh3iopr22xn2arqldkphlfi47ai4yloiifdx4ptxxfrm7xer6.py":22:20)
#loc8 = loc("/home/admin/zy429782/fx_experiments/torch_aot_tool/dynamicLib_7622_gpu_torch260/pa/cpafh3iopr22xn2arqldkphlfi47ai4yloiifdx4ptxxfrm7xer6.py":24:37)
#loc9 = loc("/home/admin/zy429782/fx_experiments/torch_aot_tool/dynamicLib_7622_gpu_torch260/pa/cpafh3iopr22xn2arqldkphlfi47ai4yloiifdx4ptxxfrm7xer6.py":24:31)
#loc10 = loc("/home/admin/zy429782/fx_experiments/torch_aot_tool/dynamicLib_7622_gpu_torch260/pa/cpafh3iopr22xn2arqldkphlfi47ai4yloiifdx4ptxxfrm7xer6.py":24:43)
#loc11 = loc("/home/admin/zy429782/fx_experiments/torch_aot_tool/dynamicLib_7622_gpu_torch260/pa/cpafh3iopr22xn2arqldkphlfi47ai4yloiifdx4ptxxfrm7xer6.py":25:30)
#loc12 = loc("/home/admin/zy429782/fx_experiments/torch_aot_tool/dynamicLib_7622_gpu_torch260/pa/cpafh3iopr22xn2arqldkphlfi47ai4yloiifdx4ptxxfrm7xer6.py":25:35)
#loc13 = loc("/home/admin/zy429782/miniforge3/envs/torch_preview_0924/lib/python3.10/site-packages/torch/_inductor/runtime/triton_helpers.py":74:15)
#loc14 = loc("/home/admin/zy429782/fx_experiments/torch_aot_tool/dynamicLib_7622_gpu_torch260/pa/cpafh3iopr22xn2arqldkphlfi47ai4yloiifdx4ptxxfrm7xer6.py":27:40)
#loc15 = loc("/home/admin/zy429782/miniforge3/envs/torch_preview_0924/lib/python3.10/site-packages/torch/_inductor/runtime/triton_helpers.py":76:21)
#loc16 = loc("/home/admin/zy429782/miniforge3/envs/torch_preview_0924/lib/python3.10/site-packages/torch/_inductor/runtime/triton_helpers.py":76:16)
#loc17 = loc("/home/admin/zy429782/miniforge3/envs/torch_preview_0924/lib/python3.10/site-packages/torch/_inductor/runtime/triton_helpers.py":77:29)
#loc18 = loc("/home/admin/zy429782/fx_experiments/torch_aot_tool/dynamicLib_7622_gpu_torch260/pa/cpafh3iopr22xn2arqldkphlfi47ai4yloiifdx4ptxxfrm7xer6.py":28:25)
#loc19 = loc("/home/admin/zy429782/fx_experiments/torch_aot_tool/dynamicLib_7622_gpu_torch260/pa/cpafh3iopr22xn2arqldkphlfi47ai4yloiifdx4ptxxfrm7xer6.py":29:19)
#loc20 = loc("/home/admin/zy429782/fx_experiments/torch_aot_tool/dynamicLib_7622_gpu_torch260/pa/cpafh3iopr22xn2arqldkphlfi47ai4yloiifdx4ptxxfrm7xer6.py":30:18)
#loc21 = loc("/home/admin/zy429782/fx_experiments/torch_aot_tool/dynamicLib_7622_gpu_torch260/pa/cpafh3iopr22xn2arqldkphlfi47ai4yloiifdx4ptxxfrm7xer6.py":32:32)
#loc22 = loc("/home/admin/zy429782/fx_experiments/torch_aot_tool/dynamicLib_7622_gpu_torch260/pa/cpafh3iopr22xn2arqldkphlfi47ai4yloiifdx4ptxxfrm7xer6.py":33:25)
#loc23 = loc("/home/admin/zy429782/fx_experiments/torch_aot_tool/dynamicLib_7622_gpu_torch260/pa/cpafh3iopr22xn2arqldkphlfi47ai4yloiifdx4ptxxfrm7xer6.py":33:36)
#loc24 = loc("/home/admin/zy429782/fx_experiments/torch_aot_tool/dynamicLib_7622_gpu_torch260/pa/cpafh3iopr22xn2arqldkphlfi47ai4yloiifdx4ptxxfrm7xer6.py":33:4)
#loc25 = loc(callsite(#loc13 at #loc14))
#loc26 = loc(callsite(#loc15 at #loc14))
#loc27 = loc(callsite(#loc16 at #loc14))
#loc28 = loc(callsite(#loc17 at #loc14))
