#loc = loc("/home/admin/zy429782/fx_experiments/torch_aot_tool/dynamicLib_7622_gpu_torch260/n3/cn3j5qfrrftqkzalryvo75jkhoghpcosgmqangruh4bfxuueky5q.py":23:0)
module {
  tt.func public @triton_(%arg0: !tt.ptr<f32> {tt.divisibility = 16 : i32} loc("/home/admin/zy429782/fx_experiments/torch_aot_tool/dynamicLib_7622_gpu_torch260/n3/cn3j5qfrrftqkzalryvo75jkhoghpcosgmqangruh4bfxuueky5q.py":23:0), %arg1: !tt.ptr<f32> {tt.divisibility = 16 : i32} loc("/home/admin/zy429782/fx_experiments/torch_aot_tool/dynamicLib_7622_gpu_torch260/n3/cn3j5qfrrftqkzalryvo75jkhoghpcosgmqangruh4bfxuueky5q.py":23:0), %arg2: !tt.ptr<f32> {tt.divisibility = 16 : i32} loc("/home/admin/zy429782/fx_experiments/torch_aot_tool/dynamicLib_7622_gpu_torch260/n3/cn3j5qfrrftqkzalryvo75jkhoghpcosgmqangruh4bfxuueky5q.py":23:0), %arg3: !tt.ptr<f32> {tt.divisibility = 16 : i32} loc("/home/admin/zy429782/fx_experiments/torch_aot_tool/dynamicLib_7622_gpu_torch260/n3/cn3j5qfrrftqkzalryvo75jkhoghpcosgmqangruh4bfxuueky5q.py":23:0), %arg4: !tt.ptr<f32> {tt.divisibility = 16 : i32} loc("/home/admin/zy429782/fx_experiments/torch_aot_tool/dynamicLib_7622_gpu_torch260/n3/cn3j5qfrrftqkzalryvo75jkhoghpcosgmqangruh4bfxuueky5q.py":23:0), %arg5: i32 {tt.divisibility = 16 : i32} loc("/home/admin/zy429782/fx_experiments/torch_aot_tool/dynamicLib_7622_gpu_torch260/n3/cn3j5qfrrftqkzalryvo75jkhoghpcosgmqangruh4bfxuueky5q.py":23:0)) attributes {noinline = false} {
    %cst = arith.constant dense<1.000000e+00> : tensor<512xf32> loc(#loc1)
    %cst_0 = arith.constant dense<0.00999999977> : tensor<512xf32> loc(#loc1)
    %cst_1 = arith.constant dense<0.000000e+00> : tensor<512xf32> loc(#loc1)
    %cst_2 = arith.constant dense<1.000000e-03> : tensor<512xf32> loc(#loc1)
    %cst_3 = arith.constant dense<512> : tensor<512xi32> loc(#loc1)
    %c512_i32 = arith.constant 512 : i32 loc(#loc1)
    %0 = tt.get_program_id x : i32 loc(#loc2)
    %1 = arith.muli %0, %c512_i32 : i32 loc(#loc3)
    %2 = tt.make_range {end = 512 : i32, start = 0 : i32} : tensor<512xi32> loc(#loc4)
    %3 = tt.splat %1 : i32 -> tensor<512xi32> loc(#loc5)
    %4 = arith.addi %3, %2 : tensor<512xi32> loc(#loc5)
    %5 = tt.splat %arg5 : i32 -> tensor<512xi32> loc(#loc6)
    %6 = arith.cmpi slt, %4, %5 : tensor<512xi32> loc(#loc6)
    %7 = arith.remsi %4, %cst_3 : tensor<512xi32> loc(#loc7)
    %8 = tt.splat %arg0 : !tt.ptr<f32> -> tensor<512x!tt.ptr<f32>> loc(#loc8)
    %9 = tt.addptr %8, %4 : tensor<512x!tt.ptr<f32>>, tensor<512xi32> loc(#loc8)
    %10 = tt.load %9, %6 : tensor<512x!tt.ptr<f32>> loc(#loc9)
    %11 = tt.splat %arg1 : !tt.ptr<f32> -> tensor<512x!tt.ptr<f32>> loc(#loc10)
    %12 = tt.addptr %11, %7 : tensor<512x!tt.ptr<f32>>, tensor<512xi32> loc(#loc10)
    %13 = tt.load %12, %6 evictionPolicy = evict_last : tensor<512x!tt.ptr<f32>> loc(#loc11)
    %14 = tt.splat %arg2 : !tt.ptr<f32> -> tensor<512x!tt.ptr<f32>> loc(#loc12)
    %15 = tt.addptr %14, %7 : tensor<512x!tt.ptr<f32>>, tensor<512xi32> loc(#loc12)
    %16 = tt.load %15, %6 evictionPolicy = evict_last : tensor<512x!tt.ptr<f32>> loc(#loc13)
    %17 = tt.splat %arg3 : !tt.ptr<f32> -> tensor<512x!tt.ptr<f32>> loc(#loc14)
    %18 = tt.addptr %17, %7 : tensor<512x!tt.ptr<f32>>, tensor<512xi32> loc(#loc14)
    %19 = tt.load %18, %6 evictionPolicy = evict_last : tensor<512x!tt.ptr<f32>> loc(#loc15)
    %20 = tt.splat %arg4 : !tt.ptr<f32> -> tensor<512x!tt.ptr<f32>> loc(#loc16)
    %21 = tt.addptr %20, %7 : tensor<512x!tt.ptr<f32>>, tensor<512xi32> loc(#loc16)
    %22 = tt.load %21, %6 evictionPolicy = evict_last : tensor<512x!tt.ptr<f32>> loc(#loc17)
    %23 = arith.subf %10, %13 : tensor<512xf32> loc(#loc18)
    %24 = arith.addf %16, %cst_2 : tensor<512xf32> loc(#loc19)
    %25 = tt.extern_elementwise %24 {libname = "", libpath = "", pure = true, symbol = "__nv_sqrtf"} : (tensor<512xf32>) -> tensor<512xf32> loc(#loc20)
    %26 = arith.divf %cst, %25 : tensor<512xf32> loc(#loc21)
    %27 = arith.mulf %23, %26 : tensor<512xf32> loc(#loc22)
    %28 = arith.mulf %27, %19 : tensor<512xf32> loc(#loc23)
    %29 = arith.addf %28, %22 : tensor<512xf32> loc(#loc24)
    %30 = arith.cmpf ogt, %29, %cst_1 : tensor<512xf32> loc(#loc25)
    %31 = arith.mulf %29, %cst_0 : tensor<512xf32> loc(#loc26)
    %32 = arith.select %30, %29, %31 : tensor<512xi1>, tensor<512xf32> loc(#loc27)
    tt.store %9, %32, %6 : tensor<512x!tt.ptr<f32>> loc(#loc28)
    tt.return loc(#loc29)
  } loc(#loc)
} loc(#loc)
#loc1 = loc(unknown)
#loc2 = loc("/home/admin/zy429782/fx_experiments/torch_aot_tool/dynamicLib_7622_gpu_torch260/n3/cn3j5qfrrftqkzalryvo75jkhoghpcosgmqangruh4bfxuueky5q.py":24:28)
#loc3 = loc("/home/admin/zy429782/fx_experiments/torch_aot_tool/dynamicLib_7622_gpu_torch260/n3/cn3j5qfrrftqkzalryvo75jkhoghpcosgmqangruh4bfxuueky5q.py":24:33)
#loc4 = loc("/home/admin/zy429782/fx_experiments/torch_aot_tool/dynamicLib_7622_gpu_torch260/n3/cn3j5qfrrftqkzalryvo75jkhoghpcosgmqangruh4bfxuueky5q.py":25:36)
#loc5 = loc("/home/admin/zy429782/fx_experiments/torch_aot_tool/dynamicLib_7622_gpu_torch260/n3/cn3j5qfrrftqkzalryvo75jkhoghpcosgmqangruh4bfxuueky5q.py":25:23)
#loc6 = loc("/home/admin/zy429782/fx_experiments/torch_aot_tool/dynamicLib_7622_gpu_torch260/n3/cn3j5qfrrftqkzalryvo75jkhoghpcosgmqangruh4bfxuueky5q.py":26:21)
#loc7 = loc("/home/admin/zy429782/fx_experiments/torch_aot_tool/dynamicLib_7622_gpu_torch260/n3/cn3j5qfrrftqkzalryvo75jkhoghpcosgmqangruh4bfxuueky5q.py":28:18)
#loc8 = loc("/home/admin/zy429782/fx_experiments/torch_aot_tool/dynamicLib_7622_gpu_torch260/n3/cn3j5qfrrftqkzalryvo75jkhoghpcosgmqangruh4bfxuueky5q.py":29:34)
#loc9 = loc("/home/admin/zy429782/fx_experiments/torch_aot_tool/dynamicLib_7622_gpu_torch260/n3/cn3j5qfrrftqkzalryvo75jkhoghpcosgmqangruh4bfxuueky5q.py":29:39)
#loc10 = loc("/home/admin/zy429782/fx_experiments/torch_aot_tool/dynamicLib_7622_gpu_torch260/n3/cn3j5qfrrftqkzalryvo75jkhoghpcosgmqangruh4bfxuueky5q.py":30:30)
#loc11 = loc("/home/admin/zy429782/fx_experiments/torch_aot_tool/dynamicLib_7622_gpu_torch260/n3/cn3j5qfrrftqkzalryvo75jkhoghpcosgmqangruh4bfxuueky5q.py":30:35)
#loc12 = loc("/home/admin/zy429782/fx_experiments/torch_aot_tool/dynamicLib_7622_gpu_torch260/n3/cn3j5qfrrftqkzalryvo75jkhoghpcosgmqangruh4bfxuueky5q.py":31:30)
#loc13 = loc("/home/admin/zy429782/fx_experiments/torch_aot_tool/dynamicLib_7622_gpu_torch260/n3/cn3j5qfrrftqkzalryvo75jkhoghpcosgmqangruh4bfxuueky5q.py":31:35)
#loc14 = loc("/home/admin/zy429782/fx_experiments/torch_aot_tool/dynamicLib_7622_gpu_torch260/n3/cn3j5qfrrftqkzalryvo75jkhoghpcosgmqangruh4bfxuueky5q.py":32:31)
#loc15 = loc("/home/admin/zy429782/fx_experiments/torch_aot_tool/dynamicLib_7622_gpu_torch260/n3/cn3j5qfrrftqkzalryvo75jkhoghpcosgmqangruh4bfxuueky5q.py":32:36)
#loc16 = loc("/home/admin/zy429782/fx_experiments/torch_aot_tool/dynamicLib_7622_gpu_torch260/n3/cn3j5qfrrftqkzalryvo75jkhoghpcosgmqangruh4bfxuueky5q.py":33:31)
#loc17 = loc("/home/admin/zy429782/fx_experiments/torch_aot_tool/dynamicLib_7622_gpu_torch260/n3/cn3j5qfrrftqkzalryvo75jkhoghpcosgmqangruh4bfxuueky5q.py":33:36)
#loc18 = loc("/home/admin/zy429782/fx_experiments/torch_aot_tool/dynamicLib_7622_gpu_torch260/n3/cn3j5qfrrftqkzalryvo75jkhoghpcosgmqangruh4bfxuueky5q.py":34:18)
#loc19 = loc("/home/admin/zy429782/fx_experiments/torch_aot_tool/dynamicLib_7622_gpu_torch260/n3/cn3j5qfrrftqkzalryvo75jkhoghpcosgmqangruh4bfxuueky5q.py":36:18)
#loc20 = loc("/home/admin/zy429782/fx_experiments/torch_aot_tool/dynamicLib_7622_gpu_torch260/n3/cn3j5qfrrftqkzalryvo75jkhoghpcosgmqangruh4bfxuueky5q.py":37:26)
#loc21 = loc("/home/admin/zy429782/fx_experiments/torch_aot_tool/dynamicLib_7622_gpu_torch260/n3/cn3j5qfrrftqkzalryvo75jkhoghpcosgmqangruh4bfxuueky5q.py":39:18)
#loc22 = loc("/home/admin/zy429782/fx_experiments/torch_aot_tool/dynamicLib_7622_gpu_torch260/n3/cn3j5qfrrftqkzalryvo75jkhoghpcosgmqangruh4bfxuueky5q.py":42:19)
#loc23 = loc("/home/admin/zy429782/fx_experiments/torch_aot_tool/dynamicLib_7622_gpu_torch260/n3/cn3j5qfrrftqkzalryvo75jkhoghpcosgmqangruh4bfxuueky5q.py":43:20)
#loc24 = loc("/home/admin/zy429782/fx_experiments/torch_aot_tool/dynamicLib_7622_gpu_torch260/n3/cn3j5qfrrftqkzalryvo75jkhoghpcosgmqangruh4bfxuueky5q.py":44:20)
#loc25 = loc("/home/admin/zy429782/fx_experiments/torch_aot_tool/dynamicLib_7622_gpu_torch260/n3/cn3j5qfrrftqkzalryvo75jkhoghpcosgmqangruh4bfxuueky5q.py":46:20)
#loc26 = loc("/home/admin/zy429782/fx_experiments/torch_aot_tool/dynamicLib_7622_gpu_torch260/n3/cn3j5qfrrftqkzalryvo75jkhoghpcosgmqangruh4bfxuueky5q.py":48:20)
#loc27 = loc("/home/admin/zy429782/fx_experiments/torch_aot_tool/dynamicLib_7622_gpu_torch260/n3/cn3j5qfrrftqkzalryvo75jkhoghpcosgmqangruh4bfxuueky5q.py":49:35)
#loc28 = loc("/home/admin/zy429782/fx_experiments/torch_aot_tool/dynamicLib_7622_gpu_torch260/n3/cn3j5qfrrftqkzalryvo75jkhoghpcosgmqangruh4bfxuueky5q.py":50:40)
#loc29 = loc("/home/admin/zy429782/fx_experiments/torch_aot_tool/dynamicLib_7622_gpu_torch260/n3/cn3j5qfrrftqkzalryvo75jkhoghpcosgmqangruh4bfxuueky5q.py":50:4)
