#loc = loc("/home/admin/zy429782/fx_experiments/torch_aot_tool/dynamicLib_7622_gpu_torch260/ji/cji6genlqlzfsvy7mazgz5dxtagx7gskl2ny2a5wxmn3a4b7nbin.py":18:0)
#loc1 = loc(unknown)
module {
  tt.func public @triton_(%arg0: !tt.ptr<f32> {tt.divisibility = 16 : i32} loc("/home/admin/zy429782/fx_experiments/torch_aot_tool/dynamicLib_7622_gpu_torch260/ji/cji6genlqlzfsvy7mazgz5dxtagx7gskl2ny2a5wxmn3a4b7nbin.py":18:0), %arg1: !tt.ptr<f32> {tt.divisibility = 16 : i32} loc("/home/admin/zy429782/fx_experiments/torch_aot_tool/dynamicLib_7622_gpu_torch260/ji/cji6genlqlzfsvy7mazgz5dxtagx7gskl2ny2a5wxmn3a4b7nbin.py":18:0), %arg2: i32 loc("/home/admin/zy429782/fx_experiments/torch_aot_tool/dynamicLib_7622_gpu_torch260/ji/cji6genlqlzfsvy7mazgz5dxtagx7gskl2ny2a5wxmn3a4b7nbin.py":18:0), %arg3: i32 loc("/home/admin/zy429782/fx_experiments/torch_aot_tool/dynamicLib_7622_gpu_torch260/ji/cji6genlqlzfsvy7mazgz5dxtagx7gskl2ny2a5wxmn3a4b7nbin.py":18:0)) attributes {noinline = false} {
    %cst = arith.constant dense<2.500000e-01> : tensor<32x64xf32> loc(#loc1)
    %cst_0 = arith.constant dense<0xFF800000> : tensor<32x64xf32> loc(#loc1)
    %cst_1 = arith.constant dense<0.000000e+00> : tensor<32x64xf32> loc(#loc1)
    %cst_2 = arith.constant dense<50> : tensor<32x1xi32> loc(#loc1)
    %cst_3 = arith.constant dense<50> : tensor<1x64xi32> loc(#loc1)
    %c32_i32 = arith.constant 32 : i32 loc(#loc1)
    %0 = tt.get_program_id x : i32 loc(#loc2)
    %1 = arith.muli %0, %c32_i32 : i32 loc(#loc3)
    %2 = tt.make_range {end = 32 : i32, start = 0 : i32} : tensor<32xi32> loc(#loc4)
    %3 = tt.expand_dims %2 {axis = 1 : i32} : tensor<32xi32> -> tensor<32x1xi32> loc(#loc5)
    %4 = tt.splat %1 : i32 -> tensor<32x1xi32> loc(#loc6)
    %5 = arith.addi %4, %3 : tensor<32x1xi32> loc(#loc6)
    %6 = tt.splat %arg2 : i32 -> tensor<32x1xi32> loc(#loc7)
    %7 = arith.cmpi slt, %5, %6 : tensor<32x1xi32> loc(#loc7)
    %8 = tt.make_range {end = 64 : i32, start = 0 : i32} : tensor<64xi32> loc(#loc8)
    %9 = tt.expand_dims %8 {axis = 0 : i32} : tensor<64xi32> -> tensor<1x64xi32> loc(#loc9)
    %10 = arith.cmpi slt, %9, %cst_3 : tensor<1x64xi32> loc(#loc10)
    %11 = arith.muli %5, %cst_2 : tensor<32x1xi32> loc(#loc11)
    %12 = tt.broadcast %9 : tensor<1x64xi32> -> tensor<32x64xi32> loc(#loc12)
    %13 = tt.broadcast %11 : tensor<32x1xi32> -> tensor<32x64xi32> loc(#loc12)
    %14 = arith.addi %12, %13 : tensor<32x64xi32> loc(#loc12)
    %15 = tt.splat %arg0 : !tt.ptr<f32> -> tensor<32x64x!tt.ptr<f32>> loc(#loc13)
    %16 = tt.addptr %15, %14 : tensor<32x64x!tt.ptr<f32>>, tensor<32x64xi32> loc(#loc13)
    %17 = tt.broadcast %10 : tensor<1x64xi1> -> tensor<32x64xi1> loc(#loc14)
    %18 = tt.broadcast %7 : tensor<32x1xi1> -> tensor<32x64xi1> loc(#loc14)
    %19 = arith.andi %17, %18 : tensor<32x64xi1> loc(#loc14)
    %20 = tt.load %16, %19, %cst_1 : tensor<32x64x!tt.ptr<f32>> loc(#loc15)
    %21 = arith.select %19, %20, %cst_0 : tensor<32x64xi1>, tensor<32x64xf32> loc(#loc16)
    %22 = "tt.reduce"(%21) <{axis = 1 : i32}> ({
    ^bb0(%arg4: f32 loc(unknown), %arg5: f32 loc(unknown)):
      %35 = arith.cmpf ogt, %arg4, %arg5 : f32 loc(#loc43)
      %36 = arith.cmpf une, %arg4, %arg4 : f32 loc(#loc44)
      %37 = arith.ori %35, %36 : i1 loc(#loc45)
      %38 = arith.select %37, %arg4, %arg5 : f32 loc(#loc46)
      tt.reduce.return %38 : f32 loc(#loc36)
    }) : (tensor<32x64xf32>) -> tensor<32xf32> loc(#loc36)
    %23 = tt.expand_dims %22 {axis = 1 : i32} : tensor<32xf32> -> tensor<32x1xf32> loc(#loc23)
    %24 = tt.broadcast %23 : tensor<32x1xf32> -> tensor<32x64xf32> loc(#loc24)
    %25 = arith.subf %20, %24 : tensor<32x64xf32> loc(#loc24)
    %26 = arith.mulf %25, %cst : tensor<32x64xf32> loc(#loc25)
    %27 = math.exp %26 : tensor<32x64xf32> loc(#loc26)
    %28 = arith.select %19, %27, %cst_1 : tensor<32x64xi1>, tensor<32x64xf32> loc(#loc27)
    %29 = "tt.reduce"(%28) <{axis = 1 : i32}> ({
    ^bb0(%arg4: f32 loc(unknown), %arg5: f32 loc(unknown)):
      %35 = arith.addf %arg4, %arg5 : f32 loc(#loc47)
      tt.reduce.return %35 : f32 loc(#loc41)
    }) : (tensor<32x64xf32>) -> tensor<32xf32> loc(#loc41)
    %30 = tt.expand_dims %29 {axis = 1 : i32} : tensor<32xf32> -> tensor<32x1xf32> loc(#loc31)
    %31 = tt.broadcast %30 : tensor<32x1xf32> -> tensor<32x64xf32> loc(#loc32)
    %32 = arith.divf %27, %31 : tensor<32x64xf32> loc(#loc32)
    %33 = tt.splat %arg1 : !tt.ptr<f32> -> tensor<32x64x!tt.ptr<f32>> loc(#loc33)
    %34 = tt.addptr %33, %14 : tensor<32x64x!tt.ptr<f32>>, tensor<32x64xi32> loc(#loc33)
    tt.store %34, %32, %19 : tensor<32x64x!tt.ptr<f32>> loc(#loc34)
    tt.return loc(#loc35)
  } loc(#loc)
} loc(#loc)
#loc2 = loc("/home/admin/zy429782/fx_experiments/torch_aot_tool/dynamicLib_7622_gpu_torch260/ji/cji6genlqlzfsvy7mazgz5dxtagx7gskl2ny2a5wxmn3a4b7nbin.py":21:28)
#loc3 = loc("/home/admin/zy429782/fx_experiments/torch_aot_tool/dynamicLib_7622_gpu_torch260/ji/cji6genlqlzfsvy7mazgz5dxtagx7gskl2ny2a5wxmn3a4b7nbin.py":21:33)
#loc4 = loc("/home/admin/zy429782/fx_experiments/torch_aot_tool/dynamicLib_7622_gpu_torch260/ji/cji6genlqlzfsvy7mazgz5dxtagx7gskl2ny2a5wxmn3a4b7nbin.py":22:36)
#loc5 = loc("/home/admin/zy429782/fx_experiments/torch_aot_tool/dynamicLib_7622_gpu_torch260/ji/cji6genlqlzfsvy7mazgz5dxtagx7gskl2ny2a5wxmn3a4b7nbin.py":22:44)
#loc6 = loc("/home/admin/zy429782/fx_experiments/torch_aot_tool/dynamicLib_7622_gpu_torch260/ji/cji6genlqlzfsvy7mazgz5dxtagx7gskl2ny2a5wxmn3a4b7nbin.py":22:23)
#loc7 = loc("/home/admin/zy429782/fx_experiments/torch_aot_tool/dynamicLib_7622_gpu_torch260/ji/cji6genlqlzfsvy7mazgz5dxtagx7gskl2ny2a5wxmn3a4b7nbin.py":23:21)
#loc8 = loc("/home/admin/zy429782/fx_experiments/torch_aot_tool/dynamicLib_7622_gpu_torch260/ji/cji6genlqlzfsvy7mazgz5dxtagx7gskl2ny2a5wxmn3a4b7nbin.py":24:26)
#loc9 = loc("/home/admin/zy429782/fx_experiments/torch_aot_tool/dynamicLib_7622_gpu_torch260/ji/cji6genlqlzfsvy7mazgz5dxtagx7gskl2ny2a5wxmn3a4b7nbin.py":24:34)
#loc10 = loc("/home/admin/zy429782/fx_experiments/torch_aot_tool/dynamicLib_7622_gpu_torch260/ji/cji6genlqlzfsvy7mazgz5dxtagx7gskl2ny2a5wxmn3a4b7nbin.py":26:21)
#loc11 = loc("/home/admin/zy429782/fx_experiments/torch_aot_tool/dynamicLib_7622_gpu_torch260/ji/cji6genlqlzfsvy7mazgz5dxtagx7gskl2ny2a5wxmn3a4b7nbin.py":29:39)
#loc12 = loc("/home/admin/zy429782/fx_experiments/torch_aot_tool/dynamicLib_7622_gpu_torch260/ji/cji6genlqlzfsvy7mazgz5dxtagx7gskl2ny2a5wxmn3a4b7nbin.py":29:36)
#loc13 = loc("/home/admin/zy429782/fx_experiments/torch_aot_tool/dynamicLib_7622_gpu_torch260/ji/cji6genlqlzfsvy7mazgz5dxtagx7gskl2ny2a5wxmn3a4b7nbin.py":29:30)
#loc14 = loc("/home/admin/zy429782/fx_experiments/torch_aot_tool/dynamicLib_7622_gpu_torch260/ji/cji6genlqlzfsvy7mazgz5dxtagx7gskl2ny2a5wxmn3a4b7nbin.py":29:53)
#loc15 = loc("/home/admin/zy429782/fx_experiments/torch_aot_tool/dynamicLib_7622_gpu_torch260/ji/cji6genlqlzfsvy7mazgz5dxtagx7gskl2ny2a5wxmn3a4b7nbin.py":29:45)
#loc16 = loc("/home/admin/zy429782/fx_experiments/torch_aot_tool/dynamicLib_7622_gpu_torch260/ji/cji6genlqlzfsvy7mazgz5dxtagx7gskl2ny2a5wxmn3a4b7nbin.py":33:41)
#loc17 = loc("/home/admin/zy429782/miniforge3/envs/torch_preview_0924/lib/python3.10/site-packages/torch/_inductor/runtime/triton_helpers.py":95:29)
#loc18 = loc("/home/admin/zy429782/fx_experiments/torch_aot_tool/dynamicLib_7622_gpu_torch260/ji/cji6genlqlzfsvy7mazgz5dxtagx7gskl2ny2a5wxmn3a4b7nbin.py":34:37)
#loc19 = loc("/home/admin/zy429782/miniforge3/envs/torch_preview_0924/lib/python3.10/site-packages/torch/_inductor/runtime/triton_helpers.py":82:15)
#loc20 = loc("/home/admin/zy429782/miniforge3/envs/torch_preview_0924/lib/python3.10/site-packages/torch/_inductor/runtime/triton_helpers.py":84:21)
#loc21 = loc("/home/admin/zy429782/miniforge3/envs/torch_preview_0924/lib/python3.10/site-packages/torch/_inductor/runtime/triton_helpers.py":84:16)
#loc22 = loc("/home/admin/zy429782/miniforge3/envs/torch_preview_0924/lib/python3.10/site-packages/torch/_inductor/runtime/triton_helpers.py":85:29)
#loc23 = loc("/home/admin/zy429782/fx_experiments/torch_aot_tool/dynamicLib_7622_gpu_torch260/ji/cji6genlqlzfsvy7mazgz5dxtagx7gskl2ny2a5wxmn3a4b7nbin.py":34:40)
#loc24 = loc("/home/admin/zy429782/fx_experiments/torch_aot_tool/dynamicLib_7622_gpu_torch260/ji/cji6genlqlzfsvy7mazgz5dxtagx7gskl2ny2a5wxmn3a4b7nbin.py":35:18)
#loc25 = loc("/home/admin/zy429782/fx_experiments/torch_aot_tool/dynamicLib_7622_gpu_torch260/ji/cji6genlqlzfsvy7mazgz5dxtagx7gskl2ny2a5wxmn3a4b7nbin.py":37:18)
#loc26 = loc("/home/admin/zy429782/fx_experiments/torch_aot_tool/dynamicLib_7622_gpu_torch260/ji/cji6genlqlzfsvy7mazgz5dxtagx7gskl2ny2a5wxmn3a4b7nbin.py":38:24)
#loc27 = loc("/home/admin/zy429782/fx_experiments/torch_aot_tool/dynamicLib_7622_gpu_torch260/ji/cji6genlqlzfsvy7mazgz5dxtagx7gskl2ny2a5wxmn3a4b7nbin.py":40:43)
#loc28 = loc("/home/admin/zy429782/miniforge3/envs/torch_preview_0924/lib/python3.10/site-packages/triton/language/standard.py":267:36)
#loc29 = loc("/home/admin/zy429782/fx_experiments/torch_aot_tool/dynamicLib_7622_gpu_torch260/ji/cji6genlqlzfsvy7mazgz5dxtagx7gskl2ny2a5wxmn3a4b7nbin.py":41:26)
#loc30 = loc("/home/admin/zy429782/miniforge3/envs/torch_preview_0924/lib/python3.10/site-packages/triton/language/standard.py":256:15)
#loc31 = loc("/home/admin/zy429782/fx_experiments/torch_aot_tool/dynamicLib_7622_gpu_torch260/ji/cji6genlqlzfsvy7mazgz5dxtagx7gskl2ny2a5wxmn3a4b7nbin.py":41:29)
#loc32 = loc("/home/admin/zy429782/fx_experiments/torch_aot_tool/dynamicLib_7622_gpu_torch260/ji/cji6genlqlzfsvy7mazgz5dxtagx7gskl2ny2a5wxmn3a4b7nbin.py":42:20)
#loc33 = loc("/home/admin/zy429782/fx_experiments/torch_aot_tool/dynamicLib_7622_gpu_torch260/ji/cji6genlqlzfsvy7mazgz5dxtagx7gskl2ny2a5wxmn3a4b7nbin.py":43:25)
#loc34 = loc("/home/admin/zy429782/fx_experiments/torch_aot_tool/dynamicLib_7622_gpu_torch260/ji/cji6genlqlzfsvy7mazgz5dxtagx7gskl2ny2a5wxmn3a4b7nbin.py":43:47)
#loc35 = loc("/home/admin/zy429782/fx_experiments/torch_aot_tool/dynamicLib_7622_gpu_torch260/ji/cji6genlqlzfsvy7mazgz5dxtagx7gskl2ny2a5wxmn3a4b7nbin.py":43:4)
#loc36 = loc(callsite(#loc17 at #loc18))
#loc37 = loc(callsite(#loc19 at #loc17))
#loc38 = loc(callsite(#loc20 at #loc17))
#loc39 = loc(callsite(#loc21 at #loc17))
#loc40 = loc(callsite(#loc22 at #loc17))
#loc41 = loc(callsite(#loc28 at #loc29))
#loc42 = loc(callsite(#loc30 at #loc28))
#loc43 = loc(callsite(#loc37 at #loc18))
#loc44 = loc(callsite(#loc38 at #loc18))
#loc45 = loc(callsite(#loc39 at #loc18))
#loc46 = loc(callsite(#loc40 at #loc18))
#loc47 = loc(callsite(#loc42 at #loc29))
