#loc = loc("/home/admin/zy429782/fx_experiments/torch_aot_tool/dynamicLib_7622_gpu/fe/cfenprznzdpqnb443odi6czvwvnqbowbp5pvrlmisbuo2mhoq6dj.py":20:0)
module {
  tt.func public @triton__0d1d2d3e(%arg0: !tt.ptr<f64, 1> {tt.divisibility = 16 : i32} loc("/home/admin/zy429782/fx_experiments/torch_aot_tool/dynamicLib_7622_gpu/fe/cfenprznzdpqnb443odi6czvwvnqbowbp5pvrlmisbuo2mhoq6dj.py":20:0), %arg1: !tt.ptr<f32, 1> {tt.divisibility = 16 : i32} loc("/home/admin/zy429782/fx_experiments/torch_aot_tool/dynamicLib_7622_gpu/fe/cfenprznzdpqnb443odi6czvwvnqbowbp5pvrlmisbuo2mhoq6dj.py":20:0), %arg2: !tt.ptr<f32, 1> {tt.divisibility = 16 : i32} loc("/home/admin/zy429782/fx_experiments/torch_aot_tool/dynamicLib_7622_gpu/fe/cfenprznzdpqnb443odi6czvwvnqbowbp5pvrlmisbuo2mhoq6dj.py":20:0), %arg3: i32 {tt.max_divisibility = 8 : i32} loc("/home/admin/zy429782/fx_experiments/torch_aot_tool/dynamicLib_7622_gpu/fe/cfenprznzdpqnb443odi6czvwvnqbowbp5pvrlmisbuo2mhoq6dj.py":20:0)) attributes {noinline = false} {
    %cst = arith.constant dense<5.000000e+01> : tensor<1024xf64> loc(#loc24)
    %cst_0 = arith.constant dense<0.000000e+00> : tensor<1024xf32> loc(#loc3)
    %cst_1 = arith.constant dense<50> : tensor<1024xi32> loc(#loc4)
    %cst_2 = arith.constant dense<172> : tensor<1024xi32> loc(#loc5)
    %c1024_i32 = arith.constant 1024 : i32 loc(#loc6)
    %0 = tt.get_program_id x : i32 loc(#loc7)
    %1 = arith.muli %0, %c1024_i32 : i32 loc(#loc6)
    %2 = tt.make_range {end = 1024 : i32, start = 0 : i32} : tensor<1024xi32> loc(#loc8)
    %3 = tt.splat %1 : (i32) -> tensor<1024xi32> loc(#loc9)
    %4 = arith.addi %3, %2 : tensor<1024xi32> loc(#loc9)
    %5 = tt.splat %arg3 : (i32) -> tensor<1024xi32> loc(#loc10)
    %6 = arith.cmpi slt, %4, %5 : tensor<1024xi32> loc(#loc10)
    %7 = arith.divsi %4, %cst_2 : tensor<1024xi32> loc(#loc5)
    %8 = arith.divsi %7, %cst_1 : tensor<1024xi32> loc(#loc4)
    %9 = tt.splat %arg0 : (!tt.ptr<f64, 1>) -> tensor<1024x!tt.ptr<f64, 1>> loc(#loc11)
    %10 = tt.addptr %9, %8 : tensor<1024x!tt.ptr<f64, 1>>, tensor<1024xi32> loc(#loc11)
    %11 = tt.load %10, %6 {cache = 1 : i32, evict = 3 : i32, isVolatile = false} : tensor<1024xf64> loc(#loc12)
    %12 = tt.splat %arg1 : (!tt.ptr<f32, 1>) -> tensor<1024x!tt.ptr<f32, 1>> loc(#loc13)
    %13 = tt.addptr %12, %4 : tensor<1024x!tt.ptr<f32, 1>>, tensor<1024xi32> loc(#loc13)
    %14 = tt.load %13, %6 {cache = 1 : i32, evict = 1 : i32, isVolatile = false} : tensor<1024xf32> loc(#loc14)
    %15 = arith.remsi %7, %cst_1 : tensor<1024xi32> loc(#loc15)
    %16 = arith.sitofp %15 : tensor<1024xi32> to tensor<1024xf64> loc(#loc16)
    %17 = arith.cmpf olt, %11, %cst : tensor<1024xf64> loc(#loc24)
    %18 = arith.cmpf une, %11, %11 : tensor<1024xf64> loc(#loc25)
    %19 = arith.ori %17, %18 : tensor<1024xi1> loc(#loc26)
    %20 = arith.select %19, %11, %cst : tensor<1024xi1>, tensor<1024xf64> loc(#loc27)
    %21 = arith.cmpf olt, %16, %20 : tensor<1024xf64> loc(#loc20)
    %22 = arith.select %21, %14, %cst_0 : tensor<1024xi1>, tensor<1024xf32> loc(#loc3)
    %23 = tt.splat %arg2 : (!tt.ptr<f32, 1>) -> tensor<1024x!tt.ptr<f32, 1>> loc(#loc21)
    %24 = tt.addptr %23, %4 : tensor<1024x!tt.ptr<f32, 1>>, tensor<1024xi32> loc(#loc21)
    tt.store %24, %22, %6 {cache = 1 : i32, evict = 1 : i32} : tensor<1024xf32> loc(#loc22)
    tt.return loc(#loc23)
  } loc(#loc)
} loc(#loc)
#loc1 = loc("/home/admin/zy429782/torch_folder/pytorch-2.3.1/torch/_inductor/triton_helpers.py":37:15)
#loc2 = loc("/home/admin/zy429782/fx_experiments/torch_aot_tool/dynamicLib_7622_gpu/fe/cfenprznzdpqnb443odi6czvwvnqbowbp5pvrlmisbuo2mhoq6dj.py":31:40)
#loc3 = loc("/home/admin/zy429782/fx_experiments/torch_aot_tool/dynamicLib_7622_gpu/fe/cfenprznzdpqnb443odi6czvwvnqbowbp5pvrlmisbuo2mhoq6dj.py":34:32)
#loc4 = loc("/home/admin/zy429782/fx_experiments/torch_aot_tool/dynamicLib_7622_gpu/fe/cfenprznzdpqnb443odi6czvwvnqbowbp5pvrlmisbuo2mhoq6dj.py":26:37)
#loc5 = loc("/home/admin/zy429782/fx_experiments/torch_aot_tool/dynamicLib_7622_gpu/fe/cfenprznzdpqnb443odi6czvwvnqbowbp5pvrlmisbuo2mhoq6dj.py":24:20)
#loc6 = loc("/home/admin/zy429782/fx_experiments/torch_aot_tool/dynamicLib_7622_gpu/fe/cfenprznzdpqnb443odi6czvwvnqbowbp5pvrlmisbuo2mhoq6dj.py":21:33)
#loc7 = loc("/home/admin/zy429782/fx_experiments/torch_aot_tool/dynamicLib_7622_gpu/fe/cfenprznzdpqnb443odi6czvwvnqbowbp5pvrlmisbuo2mhoq6dj.py":21:28)
#loc8 = loc("/home/admin/zy429782/fx_experiments/torch_aot_tool/dynamicLib_7622_gpu/fe/cfenprznzdpqnb443odi6czvwvnqbowbp5pvrlmisbuo2mhoq6dj.py":22:36)
#loc9 = loc("/home/admin/zy429782/fx_experiments/torch_aot_tool/dynamicLib_7622_gpu/fe/cfenprznzdpqnb443odi6czvwvnqbowbp5pvrlmisbuo2mhoq6dj.py":22:23)
#loc10 = loc("/home/admin/zy429782/fx_experiments/torch_aot_tool/dynamicLib_7622_gpu/fe/cfenprznzdpqnb443odi6czvwvnqbowbp5pvrlmisbuo2mhoq6dj.py":23:21)
#loc11 = loc("/home/admin/zy429782/fx_experiments/torch_aot_tool/dynamicLib_7622_gpu/fe/cfenprznzdpqnb443odi6czvwvnqbowbp5pvrlmisbuo2mhoq6dj.py":26:31)
#loc12 = loc("/home/admin/zy429782/fx_experiments/torch_aot_tool/dynamicLib_7622_gpu/fe/cfenprznzdpqnb443odi6czvwvnqbowbp5pvrlmisbuo2mhoq6dj.py":26:43)
#loc13 = loc("/home/admin/zy429782/fx_experiments/torch_aot_tool/dynamicLib_7622_gpu/fe/cfenprznzdpqnb443odi6czvwvnqbowbp5pvrlmisbuo2mhoq6dj.py":27:30)
#loc14 = loc("/home/admin/zy429782/fx_experiments/torch_aot_tool/dynamicLib_7622_gpu/fe/cfenprznzdpqnb443odi6czvwvnqbowbp5pvrlmisbuo2mhoq6dj.py":27:35)
#loc15 = loc("/home/admin/zy429782/fx_experiments/torch_aot_tool/dynamicLib_7622_gpu/fe/cfenprznzdpqnb443odi6czvwvnqbowbp5pvrlmisbuo2mhoq6dj.py":28:16)
#loc16 = loc("/home/admin/zy429782/fx_experiments/torch_aot_tool/dynamicLib_7622_gpu/fe/cfenprznzdpqnb443odi6czvwvnqbowbp5pvrlmisbuo2mhoq6dj.py":29:19)
#loc17 = loc("/home/admin/zy429782/torch_folder/pytorch-2.3.1/torch/_inductor/triton_helpers.py":39:21)
#loc18 = loc("/home/admin/zy429782/torch_folder/pytorch-2.3.1/torch/_inductor/triton_helpers.py":39:16)
#loc19 = loc("/home/admin/zy429782/torch_folder/pytorch-2.3.1/torch/_inductor/triton_helpers.py":40:29)
#loc20 = loc("/home/admin/zy429782/fx_experiments/torch_aot_tool/dynamicLib_7622_gpu/fe/cfenprznzdpqnb443odi6czvwvnqbowbp5pvrlmisbuo2mhoq6dj.py":32:18)
#loc21 = loc("/home/admin/zy429782/fx_experiments/torch_aot_tool/dynamicLib_7622_gpu/fe/cfenprznzdpqnb443odi6czvwvnqbowbp5pvrlmisbuo2mhoq6dj.py":35:25)
#loc22 = loc("/home/admin/zy429782/fx_experiments/torch_aot_tool/dynamicLib_7622_gpu/fe/cfenprznzdpqnb443odi6czvwvnqbowbp5pvrlmisbuo2mhoq6dj.py":35:36)
#loc23 = loc("/home/admin/zy429782/fx_experiments/torch_aot_tool/dynamicLib_7622_gpu/fe/cfenprznzdpqnb443odi6czvwvnqbowbp5pvrlmisbuo2mhoq6dj.py":35:4)
#loc24 = loc(callsite(#loc1 at #loc2))
#loc25 = loc(callsite(#loc17 at #loc2))
#loc26 = loc(callsite(#loc18 at #loc2))
#loc27 = loc(callsite(#loc19 at #loc2))
