#loc = loc("/home/admin/zy429782/fx_experiments/torch_aot_tool/dynamicLib_7622_gpu_torch260/lx/clxhixd53bmknv4ofrzqvvhxd3bervjfc6pbihja35ckcexixua6.py":18:0)
#loc1 = loc(unknown)
module {
  tt.func public @triton_(%arg0: !tt.ptr<f32> {tt.divisibility = 16 : i32} loc("/home/admin/zy429782/fx_experiments/torch_aot_tool/dynamicLib_7622_gpu_torch260/lx/clxhixd53bmknv4ofrzqvvhxd3bervjfc6pbihja35ckcexixua6.py":18:0), %arg1: !tt.ptr<f32> {tt.divisibility = 16 : i32} loc("/home/admin/zy429782/fx_experiments/torch_aot_tool/dynamicLib_7622_gpu_torch260/lx/clxhixd53bmknv4ofrzqvvhxd3bervjfc6pbihja35ckcexixua6.py":18:0), %arg2: !tt.ptr<f32> {tt.divisibility = 16 : i32} loc("/home/admin/zy429782/fx_experiments/torch_aot_tool/dynamicLib_7622_gpu_torch260/lx/clxhixd53bmknv4ofrzqvvhxd3bervjfc6pbihja35ckcexixua6.py":18:0), %arg3: i32 {tt.divisibility = 16 : i32} loc("/home/admin/zy429782/fx_experiments/torch_aot_tool/dynamicLib_7622_gpu_torch260/lx/clxhixd53bmknv4ofrzqvvhxd3bervjfc6pbihja35ckcexixua6.py":18:0), %arg4: i32 {tt.divisibility = 16 : i32} loc("/home/admin/zy429782/fx_experiments/torch_aot_tool/dynamicLib_7622_gpu_torch260/lx/clxhixd53bmknv4ofrzqvvhxd3bervjfc6pbihja35ckcexixua6.py":18:0)) attributes {noinline = false} {
    %cst = arith.constant dense<1.600000e+01> : tensor<128x1xf32> loc(#loc1)
    %cst_0 = arith.constant dense<0.000000e+00> : tensor<128x16xf32> loc(#loc1)
    %cst_1 = arith.constant dense<16> : tensor<128x1xi32> loc(#loc1)
    %c128_i32 = arith.constant 128 : i32 loc(#loc1)
    %0 = tt.get_program_id x : i32 loc(#loc2)
    %1 = arith.muli %0, %c128_i32 : i32 loc(#loc3)
    %2 = tt.make_range {end = 128 : i32, start = 0 : i32} : tensor<128xi32> loc(#loc4)
    %3 = tt.expand_dims %2 {axis = 1 : i32} : tensor<128xi32> -> tensor<128x1xi32> loc(#loc5)
    %4 = tt.splat %1 : i32 -> tensor<128x1xi32> loc(#loc6)
    %5 = arith.addi %4, %3 : tensor<128x1xi32> loc(#loc6)
    %6 = tt.splat %arg3 : i32 -> tensor<128x1xi32> loc(#loc7)
    %7 = arith.cmpi slt, %5, %6 : tensor<128x1xi32> loc(#loc7)
    %8 = tt.make_range {end = 16 : i32, start = 0 : i32} : tensor<16xi32> loc(#loc8)
    %9 = tt.expand_dims %8 {axis = 0 : i32} : tensor<16xi32> -> tensor<1x16xi32> loc(#loc9)
    %10 = arith.muli %5, %cst_1 : tensor<128x1xi32> loc(#loc10)
    %11 = tt.broadcast %9 : tensor<1x16xi32> -> tensor<128x16xi32> loc(#loc11)
    %12 = tt.broadcast %10 : tensor<128x1xi32> -> tensor<128x16xi32> loc(#loc11)
    %13 = arith.addi %11, %12 : tensor<128x16xi32> loc(#loc11)
    %14 = tt.splat %arg0 : !tt.ptr<f32> -> tensor<128x16x!tt.ptr<f32>> loc(#loc12)
    %15 = tt.addptr %14, %13 : tensor<128x16x!tt.ptr<f32>>, tensor<128x16xi32> loc(#loc12)
    %16 = tt.broadcast %7 : tensor<128x1xi1> -> tensor<128x16xi1> loc(#loc13)
    %17 = tt.load %15, %16, %cst_0 : tensor<128x16x!tt.ptr<f32>> loc(#loc13)
    %18 = arith.select %16, %17, %cst_0 : tensor<128x16xi1>, tensor<128x16xf32> loc(#loc14)
    %19 = "tt.reduce"(%18) <{axis = 1 : i32}> ({
    ^bb0(%arg5: f32 loc(unknown), %arg6: f32 loc(unknown)):
      %32 = arith.addf %arg5, %arg6 : f32 loc(#loc33)
      tt.reduce.return %32 : f32 loc(#loc30)
    }) : (tensor<128x16xf32>) -> tensor<128xf32> loc(#loc30)
    %20 = tt.expand_dims %19 {axis = 1 : i32} : tensor<128xf32> -> tensor<128x1xf32> loc(#loc18)
    %21 = arith.divf %20, %cst : tensor<128x1xf32> loc(#loc19)
    %22 = tt.broadcast %21 : tensor<128x1xf32> -> tensor<128x16xf32> loc(#loc20)
    %23 = arith.subf %17, %22 : tensor<128x16xf32> loc(#loc20)
    %24 = arith.mulf %23, %23 : tensor<128x16xf32> loc(#loc21)
    %25 = arith.select %16, %24, %cst_0 : tensor<128x16xi1>, tensor<128x16xf32> loc(#loc22)
    %26 = "tt.reduce"(%25) <{axis = 1 : i32}> ({
    ^bb0(%arg5: f32 loc(unknown), %arg6: f32 loc(unknown)):
      %32 = arith.addf %arg5, %arg6 : f32 loc(#loc34)
      tt.reduce.return %32 : f32 loc(#loc32)
    }) : (tensor<128x16xf32>) -> tensor<128xf32> loc(#loc32)
    %27 = tt.expand_dims %26 {axis = 1 : i32} : tensor<128xf32> -> tensor<128x1xf32> loc(#loc24)
    %28 = tt.splat %arg1 : !tt.ptr<f32> -> tensor<128x1x!tt.ptr<f32>> loc(#loc25)
    %29 = tt.addptr %28, %5 : tensor<128x1x!tt.ptr<f32>>, tensor<128x1xi32> loc(#loc25)
    tt.store %29, %21, %7 : tensor<128x1x!tt.ptr<f32>> loc(#loc26)
    %30 = tt.splat %arg2 : !tt.ptr<f32> -> tensor<128x1x!tt.ptr<f32>> loc(#loc27)
    %31 = tt.addptr %30, %5 : tensor<128x1x!tt.ptr<f32>>, tensor<128x1xi32> loc(#loc27)
    tt.store %31, %27, %7 : tensor<128x1x!tt.ptr<f32>> loc(#loc28)
    tt.return loc(#loc29)
  } loc(#loc)
} loc(#loc)
#loc2 = loc("/home/admin/zy429782/fx_experiments/torch_aot_tool/dynamicLib_7622_gpu_torch260/lx/clxhixd53bmknv4ofrzqvvhxd3bervjfc6pbihja35ckcexixua6.py":21:28)
#loc3 = loc("/home/admin/zy429782/fx_experiments/torch_aot_tool/dynamicLib_7622_gpu_torch260/lx/clxhixd53bmknv4ofrzqvvhxd3bervjfc6pbihja35ckcexixua6.py":21:33)
#loc4 = loc("/home/admin/zy429782/fx_experiments/torch_aot_tool/dynamicLib_7622_gpu_torch260/lx/clxhixd53bmknv4ofrzqvvhxd3bervjfc6pbihja35ckcexixua6.py":22:36)
#loc5 = loc("/home/admin/zy429782/fx_experiments/torch_aot_tool/dynamicLib_7622_gpu_torch260/lx/clxhixd53bmknv4ofrzqvvhxd3bervjfc6pbihja35ckcexixua6.py":22:44)
#loc6 = loc("/home/admin/zy429782/fx_experiments/torch_aot_tool/dynamicLib_7622_gpu_torch260/lx/clxhixd53bmknv4ofrzqvvhxd3bervjfc6pbihja35ckcexixua6.py":22:23)
#loc7 = loc("/home/admin/zy429782/fx_experiments/torch_aot_tool/dynamicLib_7622_gpu_torch260/lx/clxhixd53bmknv4ofrzqvvhxd3bervjfc6pbihja35ckcexixua6.py":23:21)
#loc8 = loc("/home/admin/zy429782/fx_experiments/torch_aot_tool/dynamicLib_7622_gpu_torch260/lx/clxhixd53bmknv4ofrzqvvhxd3bervjfc6pbihja35ckcexixua6.py":24:26)
#loc9 = loc("/home/admin/zy429782/fx_experiments/torch_aot_tool/dynamicLib_7622_gpu_torch260/lx/clxhixd53bmknv4ofrzqvvhxd3bervjfc6pbihja35ckcexixua6.py":24:34)
#loc10 = loc("/home/admin/zy429782/fx_experiments/torch_aot_tool/dynamicLib_7622_gpu_torch260/lx/clxhixd53bmknv4ofrzqvvhxd3bervjfc6pbihja35ckcexixua6.py":29:39)
#loc11 = loc("/home/admin/zy429782/fx_experiments/torch_aot_tool/dynamicLib_7622_gpu_torch260/lx/clxhixd53bmknv4ofrzqvvhxd3bervjfc6pbihja35ckcexixua6.py":29:36)
#loc12 = loc("/home/admin/zy429782/fx_experiments/torch_aot_tool/dynamicLib_7622_gpu_torch260/lx/clxhixd53bmknv4ofrzqvvhxd3bervjfc6pbihja35ckcexixua6.py":29:30)
#loc13 = loc("/home/admin/zy429782/fx_experiments/torch_aot_tool/dynamicLib_7622_gpu_torch260/lx/clxhixd53bmknv4ofrzqvvhxd3bervjfc6pbihja35ckcexixua6.py":29:45)
#loc14 = loc("/home/admin/zy429782/fx_experiments/torch_aot_tool/dynamicLib_7622_gpu_torch260/lx/clxhixd53bmknv4ofrzqvvhxd3bervjfc6pbihja35ckcexixua6.py":33:33)
#loc15 = loc("/home/admin/zy429782/miniforge3/envs/torch_preview_0924/lib/python3.10/site-packages/triton/language/standard.py":267:36)
#loc16 = loc("/home/admin/zy429782/fx_experiments/torch_aot_tool/dynamicLib_7622_gpu_torch260/lx/clxhixd53bmknv4ofrzqvvhxd3bervjfc6pbihja35ckcexixua6.py":34:24)
#loc17 = loc("/home/admin/zy429782/miniforge3/envs/torch_preview_0924/lib/python3.10/site-packages/triton/language/standard.py":256:15)
#loc18 = loc("/home/admin/zy429782/fx_experiments/torch_aot_tool/dynamicLib_7622_gpu_torch260/lx/clxhixd53bmknv4ofrzqvvhxd3bervjfc6pbihja35ckcexixua6.py":34:27)
#loc19 = loc("/home/admin/zy429782/fx_experiments/torch_aot_tool/dynamicLib_7622_gpu_torch260/lx/clxhixd53bmknv4ofrzqvvhxd3bervjfc6pbihja35ckcexixua6.py":37:19)
#loc20 = loc("/home/admin/zy429782/fx_experiments/torch_aot_tool/dynamicLib_7622_gpu_torch260/lx/clxhixd53bmknv4ofrzqvvhxd3bervjfc6pbihja35ckcexixua6.py":38:19)
#loc21 = loc("/home/admin/zy429782/fx_experiments/torch_aot_tool/dynamicLib_7622_gpu_torch260/lx/clxhixd53bmknv4ofrzqvvhxd3bervjfc6pbihja35ckcexixua6.py":39:20)
#loc22 = loc("/home/admin/zy429782/fx_experiments/torch_aot_tool/dynamicLib_7622_gpu_torch260/lx/clxhixd53bmknv4ofrzqvvhxd3bervjfc6pbihja35ckcexixua6.py":41:35)
#loc23 = loc("/home/admin/zy429782/fx_experiments/torch_aot_tool/dynamicLib_7622_gpu_torch260/lx/clxhixd53bmknv4ofrzqvvhxd3bervjfc6pbihja35ckcexixua6.py":42:26)
#loc24 = loc("/home/admin/zy429782/fx_experiments/torch_aot_tool/dynamicLib_7622_gpu_torch260/lx/clxhixd53bmknv4ofrzqvvhxd3bervjfc6pbihja35ckcexixua6.py":42:29)
#loc25 = loc("/home/admin/zy429782/fx_experiments/torch_aot_tool/dynamicLib_7622_gpu_torch260/lx/clxhixd53bmknv4ofrzqvvhxd3bervjfc6pbihja35ckcexixua6.py":43:25)
#loc26 = loc("/home/admin/zy429782/fx_experiments/torch_aot_tool/dynamicLib_7622_gpu_torch260/lx/clxhixd53bmknv4ofrzqvvhxd3bervjfc6pbihja35ckcexixua6.py":43:37)
#loc27 = loc("/home/admin/zy429782/fx_experiments/torch_aot_tool/dynamicLib_7622_gpu_torch260/lx/clxhixd53bmknv4ofrzqvvhxd3bervjfc6pbihja35ckcexixua6.py":44:25)
#loc28 = loc("/home/admin/zy429782/fx_experiments/torch_aot_tool/dynamicLib_7622_gpu_torch260/lx/clxhixd53bmknv4ofrzqvvhxd3bervjfc6pbihja35ckcexixua6.py":44:37)
#loc29 = loc("/home/admin/zy429782/fx_experiments/torch_aot_tool/dynamicLib_7622_gpu_torch260/lx/clxhixd53bmknv4ofrzqvvhxd3bervjfc6pbihja35ckcexixua6.py":44:4)
#loc30 = loc(callsite(#loc15 at #loc16))
#loc31 = loc(callsite(#loc17 at #loc15))
#loc32 = loc(callsite(#loc15 at #loc23))
#loc33 = loc(callsite(#loc31 at #loc16))
#loc34 = loc(callsite(#loc31 at #loc23))
