#loc = loc("/home/admin/zy429782/fx_experiments/torch_aot_tool/dynamicLib_7622_gpu_torch260/ji/cji6genlqlzfsvy7mazgz5dxtagx7gskl2ny2a5wxmn3a4b7nbin.py":18:0)
#loc1 = loc(unknown)
module {
  tt.func public @triton_(%arg0: !tt.ptr<f32> {tt.divisibility = 16 : i32} loc("/home/admin/zy429782/fx_experiments/torch_aot_tool/dynamicLib_7622_gpu_torch260/ji/cji6genlqlzfsvy7mazgz5dxtagx7gskl2ny2a5wxmn3a4b7nbin.py":18:0), %arg1: !tt.ptr<f32> {tt.divisibility = 16 : i32} loc("/home/admin/zy429782/fx_experiments/torch_aot_tool/dynamicLib_7622_gpu_torch260/ji/cji6genlqlzfsvy7mazgz5dxtagx7gskl2ny2a5wxmn3a4b7nbin.py":18:0), %arg2: i32 loc("/home/admin/zy429782/fx_experiments/torch_aot_tool/dynamicLib_7622_gpu_torch260/ji/cji6genlqlzfsvy7mazgz5dxtagx7gskl2ny2a5wxmn3a4b7nbin.py":18:0), %arg3: i32 loc("/home/admin/zy429782/fx_experiments/torch_aot_tool/dynamicLib_7622_gpu_torch260/ji/cji6genlqlzfsvy7mazgz5dxtagx7gskl2ny2a5wxmn3a4b7nbin.py":18:0)) attributes {noinline = false} {
    %c50_i32 = arith.constant 50 : i32 loc(#loc1)
    %cst = arith.constant dense<2.500000e-01> : tensor<1x64xf32> loc(#loc1)
    %cst_0 = arith.constant dense<0xFF800000> : tensor<1x64xf32> loc(#loc1)
    %cst_1 = arith.constant dense<0.000000e+00> : tensor<1x64xf32> loc(#loc1)
    %cst_2 = arith.constant dense<50> : tensor<1x64xi32> loc(#loc1)
    %0 = tt.get_program_id x : i32 loc(#loc2)
    %1 = arith.cmpi slt, %0, %arg2 : i32 loc(#loc3)
    %2 = tt.make_range {end = 64 : i32, start = 0 : i32} : tensor<64xi32> loc(#loc4)
    %3 = tt.expand_dims %2 {axis = 0 : i32} : tensor<64xi32> -> tensor<1x64xi32> loc(#loc5)
    %4 = arith.cmpi slt, %3, %cst_2 : tensor<1x64xi32> loc(#loc6)
    %5 = arith.muli %0, %c50_i32 : i32 loc(#loc7)
    %6 = tt.splat %5 : i32 -> tensor<1x64xi32> loc(#loc8)
    %7 = arith.addi %3, %6 : tensor<1x64xi32> loc(#loc8)
    %8 = tt.splat %arg0 : !tt.ptr<f32> -> tensor<1x64x!tt.ptr<f32>> loc(#loc9)
    %9 = tt.addptr %8, %7 : tensor<1x64x!tt.ptr<f32>>, tensor<1x64xi32> loc(#loc9)
    %10 = tt.splat %1 : i1 -> tensor<1x64xi1> loc(#loc10)
    %11 = arith.andi %4, %10 : tensor<1x64xi1> loc(#loc10)
    %12 = tt.load %9, %11, %cst_1 : tensor<1x64x!tt.ptr<f32>> loc(#loc11)
    %13 = arith.select %11, %12, %cst_0 : tensor<1x64xi1>, tensor<1x64xf32> loc(#loc12)
    %14 = "tt.reduce"(%13) <{axis = 1 : i32}> ({
    ^bb0(%arg4: f32 loc(unknown), %arg5: f32 loc(unknown)):
      %27 = arith.cmpf ogt, %arg4, %arg5 : f32 loc(#loc39)
      %28 = arith.cmpf une, %arg4, %arg4 : f32 loc(#loc40)
      %29 = arith.ori %27, %28 : i1 loc(#loc41)
      %30 = arith.select %29, %arg4, %arg5 : f32 loc(#loc42)
      tt.reduce.return %30 : f32 loc(#loc32)
    }) : (tensor<1x64xf32>) -> tensor<1xf32> loc(#loc32)
    %15 = tt.expand_dims %14 {axis = 1 : i32} : tensor<1xf32> -> tensor<1x1xf32> loc(#loc19)
    %16 = tt.broadcast %15 : tensor<1x1xf32> -> tensor<1x64xf32> loc(#loc20)
    %17 = arith.subf %12, %16 : tensor<1x64xf32> loc(#loc20)
    %18 = arith.mulf %17, %cst : tensor<1x64xf32> loc(#loc21)
    %19 = math.exp %18 : tensor<1x64xf32> loc(#loc22)
    %20 = arith.select %11, %19, %cst_1 : tensor<1x64xi1>, tensor<1x64xf32> loc(#loc23)
    %21 = "tt.reduce"(%20) <{axis = 1 : i32}> ({
    ^bb0(%arg4: f32 loc(unknown), %arg5: f32 loc(unknown)):
      %27 = arith.addf %arg4, %arg5 : f32 loc(#loc43)
      tt.reduce.return %27 : f32 loc(#loc37)
    }) : (tensor<1x64xf32>) -> tensor<1xf32> loc(#loc37)
    %22 = tt.expand_dims %21 {axis = 1 : i32} : tensor<1xf32> -> tensor<1x1xf32> loc(#loc27)
    %23 = tt.broadcast %22 : tensor<1x1xf32> -> tensor<1x64xf32> loc(#loc28)
    %24 = arith.divf %19, %23 : tensor<1x64xf32> loc(#loc28)
    %25 = tt.splat %arg1 : !tt.ptr<f32> -> tensor<1x64x!tt.ptr<f32>> loc(#loc29)
    %26 = tt.addptr %25, %7 : tensor<1x64x!tt.ptr<f32>>, tensor<1x64xi32> loc(#loc29)
    tt.store %26, %24, %11 : tensor<1x64x!tt.ptr<f32>> loc(#loc30)
    tt.return loc(#loc31)
  } loc(#loc)
} loc(#loc)
#loc2 = loc("/home/admin/zy429782/fx_experiments/torch_aot_tool/dynamicLib_7622_gpu_torch260/ji/cji6genlqlzfsvy7mazgz5dxtagx7gskl2ny2a5wxmn3a4b7nbin.py":21:28)
#loc3 = loc("/home/admin/zy429782/fx_experiments/torch_aot_tool/dynamicLib_7622_gpu_torch260/ji/cji6genlqlzfsvy7mazgz5dxtagx7gskl2ny2a5wxmn3a4b7nbin.py":23:21)
#loc4 = loc("/home/admin/zy429782/fx_experiments/torch_aot_tool/dynamicLib_7622_gpu_torch260/ji/cji6genlqlzfsvy7mazgz5dxtagx7gskl2ny2a5wxmn3a4b7nbin.py":24:26)
#loc5 = loc("/home/admin/zy429782/fx_experiments/torch_aot_tool/dynamicLib_7622_gpu_torch260/ji/cji6genlqlzfsvy7mazgz5dxtagx7gskl2ny2a5wxmn3a4b7nbin.py":24:34)
#loc6 = loc("/home/admin/zy429782/fx_experiments/torch_aot_tool/dynamicLib_7622_gpu_torch260/ji/cji6genlqlzfsvy7mazgz5dxtagx7gskl2ny2a5wxmn3a4b7nbin.py":26:21)
#loc7 = loc("/home/admin/zy429782/fx_experiments/torch_aot_tool/dynamicLib_7622_gpu_torch260/ji/cji6genlqlzfsvy7mazgz5dxtagx7gskl2ny2a5wxmn3a4b7nbin.py":29:39)
#loc8 = loc("/home/admin/zy429782/fx_experiments/torch_aot_tool/dynamicLib_7622_gpu_torch260/ji/cji6genlqlzfsvy7mazgz5dxtagx7gskl2ny2a5wxmn3a4b7nbin.py":29:36)
#loc9 = loc("/home/admin/zy429782/fx_experiments/torch_aot_tool/dynamicLib_7622_gpu_torch260/ji/cji6genlqlzfsvy7mazgz5dxtagx7gskl2ny2a5wxmn3a4b7nbin.py":29:30)
#loc10 = loc("/home/admin/zy429782/fx_experiments/torch_aot_tool/dynamicLib_7622_gpu_torch260/ji/cji6genlqlzfsvy7mazgz5dxtagx7gskl2ny2a5wxmn3a4b7nbin.py":29:53)
#loc11 = loc("/home/admin/zy429782/fx_experiments/torch_aot_tool/dynamicLib_7622_gpu_torch260/ji/cji6genlqlzfsvy7mazgz5dxtagx7gskl2ny2a5wxmn3a4b7nbin.py":29:45)
#loc12 = loc("/home/admin/zy429782/fx_experiments/torch_aot_tool/dynamicLib_7622_gpu_torch260/ji/cji6genlqlzfsvy7mazgz5dxtagx7gskl2ny2a5wxmn3a4b7nbin.py":33:41)
#loc13 = loc("/home/admin/zy429782/miniforge3/envs/torch_preview_0924/lib/python3.10/site-packages/torch/_inductor/runtime/triton_helpers.py":95:29)
#loc14 = loc("/home/admin/zy429782/fx_experiments/torch_aot_tool/dynamicLib_7622_gpu_torch260/ji/cji6genlqlzfsvy7mazgz5dxtagx7gskl2ny2a5wxmn3a4b7nbin.py":34:37)
#loc15 = loc("/home/admin/zy429782/miniforge3/envs/torch_preview_0924/lib/python3.10/site-packages/torch/_inductor/runtime/triton_helpers.py":82:15)
#loc16 = loc("/home/admin/zy429782/miniforge3/envs/torch_preview_0924/lib/python3.10/site-packages/torch/_inductor/runtime/triton_helpers.py":84:21)
#loc17 = loc("/home/admin/zy429782/miniforge3/envs/torch_preview_0924/lib/python3.10/site-packages/torch/_inductor/runtime/triton_helpers.py":84:16)
#loc18 = loc("/home/admin/zy429782/miniforge3/envs/torch_preview_0924/lib/python3.10/site-packages/torch/_inductor/runtime/triton_helpers.py":85:29)
#loc19 = loc("/home/admin/zy429782/fx_experiments/torch_aot_tool/dynamicLib_7622_gpu_torch260/ji/cji6genlqlzfsvy7mazgz5dxtagx7gskl2ny2a5wxmn3a4b7nbin.py":34:40)
#loc20 = loc("/home/admin/zy429782/fx_experiments/torch_aot_tool/dynamicLib_7622_gpu_torch260/ji/cji6genlqlzfsvy7mazgz5dxtagx7gskl2ny2a5wxmn3a4b7nbin.py":35:18)
#loc21 = loc("/home/admin/zy429782/fx_experiments/torch_aot_tool/dynamicLib_7622_gpu_torch260/ji/cji6genlqlzfsvy7mazgz5dxtagx7gskl2ny2a5wxmn3a4b7nbin.py":37:18)
#loc22 = loc("/home/admin/zy429782/fx_experiments/torch_aot_tool/dynamicLib_7622_gpu_torch260/ji/cji6genlqlzfsvy7mazgz5dxtagx7gskl2ny2a5wxmn3a4b7nbin.py":38:24)
#loc23 = loc("/home/admin/zy429782/fx_experiments/torch_aot_tool/dynamicLib_7622_gpu_torch260/ji/cji6genlqlzfsvy7mazgz5dxtagx7gskl2ny2a5wxmn3a4b7nbin.py":40:43)
#loc24 = loc("/home/admin/zy429782/miniforge3/envs/torch_preview_0924/lib/python3.10/site-packages/triton/language/standard.py":267:36)
#loc25 = loc("/home/admin/zy429782/fx_experiments/torch_aot_tool/dynamicLib_7622_gpu_torch260/ji/cji6genlqlzfsvy7mazgz5dxtagx7gskl2ny2a5wxmn3a4b7nbin.py":41:26)
#loc26 = loc("/home/admin/zy429782/miniforge3/envs/torch_preview_0924/lib/python3.10/site-packages/triton/language/standard.py":256:15)
#loc27 = loc("/home/admin/zy429782/fx_experiments/torch_aot_tool/dynamicLib_7622_gpu_torch260/ji/cji6genlqlzfsvy7mazgz5dxtagx7gskl2ny2a5wxmn3a4b7nbin.py":41:29)
#loc28 = loc("/home/admin/zy429782/fx_experiments/torch_aot_tool/dynamicLib_7622_gpu_torch260/ji/cji6genlqlzfsvy7mazgz5dxtagx7gskl2ny2a5wxmn3a4b7nbin.py":42:20)
#loc29 = loc("/home/admin/zy429782/fx_experiments/torch_aot_tool/dynamicLib_7622_gpu_torch260/ji/cji6genlqlzfsvy7mazgz5dxtagx7gskl2ny2a5wxmn3a4b7nbin.py":43:25)
#loc30 = loc("/home/admin/zy429782/fx_experiments/torch_aot_tool/dynamicLib_7622_gpu_torch260/ji/cji6genlqlzfsvy7mazgz5dxtagx7gskl2ny2a5wxmn3a4b7nbin.py":43:47)
#loc31 = loc("/home/admin/zy429782/fx_experiments/torch_aot_tool/dynamicLib_7622_gpu_torch260/ji/cji6genlqlzfsvy7mazgz5dxtagx7gskl2ny2a5wxmn3a4b7nbin.py":43:4)
#loc32 = loc(callsite(#loc13 at #loc14))
#loc33 = loc(callsite(#loc15 at #loc13))
#loc34 = loc(callsite(#loc16 at #loc13))
#loc35 = loc(callsite(#loc17 at #loc13))
#loc36 = loc(callsite(#loc18 at #loc13))
#loc37 = loc(callsite(#loc24 at #loc25))
#loc38 = loc(callsite(#loc26 at #loc24))
#loc39 = loc(callsite(#loc33 at #loc14))
#loc40 = loc(callsite(#loc34 at #loc14))
#loc41 = loc(callsite(#loc35 at #loc14))
#loc42 = loc(callsite(#loc36 at #loc14))
#loc43 = loc(callsite(#loc38 at #loc25))
