#loc = loc("/home/admin/zy429782/fx_experiments/torch_aot_tool/dynamicLib_7622_gpu_torch260/oy/coyjxip4s6xvtcg2t65ph3jndq756xmifu6l3oxu7y5qyksgxmln.py":18:0)
#loc1 = loc(unknown)
module {
  tt.func public @triton_(%arg0: !tt.ptr<f64> {tt.divisibility = 16 : i32} loc("/home/admin/zy429782/fx_experiments/torch_aot_tool/dynamicLib_7622_gpu_torch260/oy/coyjxip4s6xvtcg2t65ph3jndq756xmifu6l3oxu7y5qyksgxmln.py":18:0), %arg1: !tt.ptr<f32> {tt.divisibility = 16 : i32} loc("/home/admin/zy429782/fx_experiments/torch_aot_tool/dynamicLib_7622_gpu_torch260/oy/coyjxip4s6xvtcg2t65ph3jndq756xmifu6l3oxu7y5qyksgxmln.py":18:0), %arg2: !tt.ptr<f32> {tt.divisibility = 16 : i32} loc("/home/admin/zy429782/fx_experiments/torch_aot_tool/dynamicLib_7622_gpu_torch260/oy/coyjxip4s6xvtcg2t65ph3jndq756xmifu6l3oxu7y5qyksgxmln.py":18:0), %arg3: i32 loc("/home/admin/zy429782/fx_experiments/torch_aot_tool/dynamicLib_7622_gpu_torch260/oy/coyjxip4s6xvtcg2t65ph3jndq756xmifu6l3oxu7y5qyksgxmln.py":18:0), %arg4: i32 loc("/home/admin/zy429782/fx_experiments/torch_aot_tool/dynamicLib_7622_gpu_torch260/oy/coyjxip4s6xvtcg2t65ph3jndq756xmifu6l3oxu7y5qyksgxmln.py":18:0)) attributes {noinline = false} {
    %cst = arith.constant dense<0.000000e+00> : tensor<1x64xf32> loc(#loc1)
    %cst_0 = arith.constant dense<0.000000e+00> : tensor<1x1xf32> loc(#loc1)
    %cst_1 = arith.constant dense<5.000000e+01> : tensor<1x1xf64> loc(#loc1)
    %cst_2 = arith.constant dense<50> : tensor<1x64xi32> loc(#loc1)
    %0 = tt.get_program_id x : i32 loc(#loc2)
    %1 = arith.cmpi slt, %0, %arg3 : i32 loc(#loc3)
    %2 = tt.splat %1 : i1 -> tensor<1x1xi1> loc(#loc3)
    %3 = tt.make_range {end = 64 : i32, start = 0 : i32} : tensor<64xi32> loc(#loc4)
    %4 = tt.expand_dims %3 {axis = 0 : i32} : tensor<64xi32> -> tensor<1x64xi32> loc(#loc5)
    %5 = arith.cmpi slt, %4, %cst_2 : tensor<1x64xi32> loc(#loc6)
    %6 = tt.addptr %arg0, %0 : !tt.ptr<f64>, i32 loc(#loc7)
    %7 = tt.splat %6 : !tt.ptr<f64> -> tensor<1x1x!tt.ptr<f64>> loc(#loc7)
    %8 = tt.load %7, %2 evictionPolicy = evict_last : tensor<1x1x!tt.ptr<f64>> loc(#loc8)
    %9 = arith.cmpf olt, %8, %cst_1 : tensor<1x1xf64> loc(#loc34)
    %10 = arith.cmpf une, %8, %8 : tensor<1x1xf64> loc(#loc35)
    %11 = arith.ori %9, %10 : tensor<1x1xi1> loc(#loc36)
    %12 = arith.select %11, %8, %cst_1 : tensor<1x1xi1>, tensor<1x1xf64> loc(#loc37)
    %13 = arith.sitofp %4 : tensor<1x64xi32> to tensor<1x64xf64> loc(#loc14)
    %14 = tt.broadcast %12 : tensor<1x1xf64> -> tensor<1x64xf64> loc(#loc15)
    %15 = arith.cmpf olt, %13, %14 : tensor<1x64xf64> loc(#loc15)
    %16 = arith.uitofp %15 : tensor<1x64xi1> to tensor<1x64xf32> loc(#loc16)
    %17 = tt.splat %1 : i1 -> tensor<1x64xi1> loc(#loc17)
    %18 = arith.andi %5, %17 : tensor<1x64xi1> loc(#loc17)
    %19 = arith.select %18, %16, %cst : tensor<1x64xi1>, tensor<1x64xf32> loc(#loc18)
    %20 = "tt.reduce"(%19) <{axis = 1 : i32}> ({
    ^bb0(%arg5: f32 loc(unknown), %arg6: f32 loc(unknown)):
      %33 = arith.addf %arg5, %arg6 : f32 loc(#loc41)
      tt.reduce.return %33 : f32 loc(#loc38)
    }) : (tensor<1x64xf32>) -> tensor<1xf32> loc(#loc38)
    %21 = tt.expand_dims %20 {axis = 1 : i32} : tensor<1xf32> -> tensor<1x1xf32> loc(#loc22)
    %22 = arith.cmpf oeq, %21, %cst_0 : tensor<1x1xf32> loc(#loc23)
    %23 = tt.broadcast %22 : tensor<1x1xi1> -> tensor<1x64xi1> loc(#loc24)
    %24 = arith.ori %15, %23 : tensor<1x64xi1> loc(#loc24)
    %25 = arith.uitofp %24 : tensor<1x64xi1> to tensor<1x64xf32> loc(#loc25)
    %26 = arith.select %18, %25, %cst : tensor<1x64xi1>, tensor<1x64xf32> loc(#loc26)
    %27 = "tt.reduce"(%26) <{axis = 1 : i32}> ({
    ^bb0(%arg5: f32 loc(unknown), %arg6: f32 loc(unknown)):
      %33 = arith.addf %arg5, %arg6 : f32 loc(#loc42)
      tt.reduce.return %33 : f32 loc(#loc40)
    }) : (tensor<1x64xf32>) -> tensor<1xf32> loc(#loc40)
    %28 = tt.expand_dims %27 {axis = 1 : i32} : tensor<1xf32> -> tensor<1x1xf32> loc(#loc28)
    %29 = tt.addptr %arg1, %0 : !tt.ptr<f32>, i32 loc(#loc29)
    %30 = tt.splat %29 : !tt.ptr<f32> -> tensor<1x1x!tt.ptr<f32>> loc(#loc29)
    tt.store %30, %21, %2 : tensor<1x1x!tt.ptr<f32>> loc(#loc30)
    %31 = tt.addptr %arg2, %0 : !tt.ptr<f32>, i32 loc(#loc31)
    %32 = tt.splat %31 : !tt.ptr<f32> -> tensor<1x1x!tt.ptr<f32>> loc(#loc31)
    tt.store %32, %28, %2 : tensor<1x1x!tt.ptr<f32>> loc(#loc32)
    tt.return loc(#loc33)
  } loc(#loc)
} loc(#loc)
#loc2 = loc("/home/admin/zy429782/fx_experiments/torch_aot_tool/dynamicLib_7622_gpu_torch260/oy/coyjxip4s6xvtcg2t65ph3jndq756xmifu6l3oxu7y5qyksgxmln.py":21:28)
#loc3 = loc("/home/admin/zy429782/fx_experiments/torch_aot_tool/dynamicLib_7622_gpu_torch260/oy/coyjxip4s6xvtcg2t65ph3jndq756xmifu6l3oxu7y5qyksgxmln.py":23:21)
#loc4 = loc("/home/admin/zy429782/fx_experiments/torch_aot_tool/dynamicLib_7622_gpu_torch260/oy/coyjxip4s6xvtcg2t65ph3jndq756xmifu6l3oxu7y5qyksgxmln.py":24:26)
#loc5 = loc("/home/admin/zy429782/fx_experiments/torch_aot_tool/dynamicLib_7622_gpu_torch260/oy/coyjxip4s6xvtcg2t65ph3jndq756xmifu6l3oxu7y5qyksgxmln.py":24:34)
#loc6 = loc("/home/admin/zy429782/fx_experiments/torch_aot_tool/dynamicLib_7622_gpu_torch260/oy/coyjxip4s6xvtcg2t65ph3jndq756xmifu6l3oxu7y5qyksgxmln.py":26:21)
#loc7 = loc("/home/admin/zy429782/fx_experiments/torch_aot_tool/dynamicLib_7622_gpu_torch260/oy/coyjxip4s6xvtcg2t65ph3jndq756xmifu6l3oxu7y5qyksgxmln.py":29:30)
#loc8 = loc("/home/admin/zy429782/fx_experiments/torch_aot_tool/dynamicLib_7622_gpu_torch260/oy/coyjxip4s6xvtcg2t65ph3jndq756xmifu6l3oxu7y5qyksgxmln.py":29:35)
#loc9 = loc("/home/admin/zy429782/miniforge3/envs/torch_preview_0924/lib/python3.10/site-packages/torch/_inductor/runtime/triton_helpers.py":74:15)
#loc10 = loc("/home/admin/zy429782/fx_experiments/torch_aot_tool/dynamicLib_7622_gpu_torch260/oy/coyjxip4s6xvtcg2t65ph3jndq756xmifu6l3oxu7y5qyksgxmln.py":31:40)
#loc11 = loc("/home/admin/zy429782/miniforge3/envs/torch_preview_0924/lib/python3.10/site-packages/torch/_inductor/runtime/triton_helpers.py":76:21)
#loc12 = loc("/home/admin/zy429782/miniforge3/envs/torch_preview_0924/lib/python3.10/site-packages/torch/_inductor/runtime/triton_helpers.py":76:16)
#loc13 = loc("/home/admin/zy429782/miniforge3/envs/torch_preview_0924/lib/python3.10/site-packages/torch/_inductor/runtime/triton_helpers.py":77:29)
#loc14 = loc("/home/admin/zy429782/fx_experiments/torch_aot_tool/dynamicLib_7622_gpu_torch260/oy/coyjxip4s6xvtcg2t65ph3jndq756xmifu6l3oxu7y5qyksgxmln.py":33:19)
#loc15 = loc("/home/admin/zy429782/fx_experiments/torch_aot_tool/dynamicLib_7622_gpu_torch260/oy/coyjxip4s6xvtcg2t65ph3jndq756xmifu6l3oxu7y5qyksgxmln.py":34:18)
#loc16 = loc("/home/admin/zy429782/fx_experiments/torch_aot_tool/dynamicLib_7622_gpu_torch260/oy/coyjxip4s6xvtcg2t65ph3jndq756xmifu6l3oxu7y5qyksgxmln.py":35:19)
#loc17 = loc("/home/admin/zy429782/fx_experiments/torch_aot_tool/dynamicLib_7622_gpu_torch260/oy/coyjxip4s6xvtcg2t65ph3jndq756xmifu6l3oxu7y5qyksgxmln.py":37:28)
#loc18 = loc("/home/admin/zy429782/fx_experiments/torch_aot_tool/dynamicLib_7622_gpu_torch260/oy/coyjxip4s6xvtcg2t65ph3jndq756xmifu6l3oxu7y5qyksgxmln.py":37:41)
#loc19 = loc("/home/admin/zy429782/miniforge3/envs/torch_preview_0924/lib/python3.10/site-packages/triton/language/standard.py":267:36)
#loc20 = loc("/home/admin/zy429782/fx_experiments/torch_aot_tool/dynamicLib_7622_gpu_torch260/oy/coyjxip4s6xvtcg2t65ph3jndq756xmifu6l3oxu7y5qyksgxmln.py":38:25)
#loc21 = loc("/home/admin/zy429782/miniforge3/envs/torch_preview_0924/lib/python3.10/site-packages/triton/language/standard.py":256:15)
#loc22 = loc("/home/admin/zy429782/fx_experiments/torch_aot_tool/dynamicLib_7622_gpu_torch260/oy/coyjxip4s6xvtcg2t65ph3jndq756xmifu6l3oxu7y5qyksgxmln.py":38:28)
#loc23 = loc("/home/admin/zy429782/fx_experiments/torch_aot_tool/dynamicLib_7622_gpu_torch260/oy/coyjxip4s6xvtcg2t65ph3jndq756xmifu6l3oxu7y5qyksgxmln.py":40:21)
#loc24 = loc("/home/admin/zy429782/fx_experiments/torch_aot_tool/dynamicLib_7622_gpu_torch260/oy/coyjxip4s6xvtcg2t65ph3jndq756xmifu6l3oxu7y5qyksgxmln.py":41:19)
#loc25 = loc("/home/admin/zy429782/fx_experiments/torch_aot_tool/dynamicLib_7622_gpu_torch260/oy/coyjxip4s6xvtcg2t65ph3jndq756xmifu6l3oxu7y5qyksgxmln.py":42:21)
#loc26 = loc("/home/admin/zy429782/fx_experiments/torch_aot_tool/dynamicLib_7622_gpu_torch260/oy/coyjxip4s6xvtcg2t65ph3jndq756xmifu6l3oxu7y5qyksgxmln.py":44:43)
#loc27 = loc("/home/admin/zy429782/fx_experiments/torch_aot_tool/dynamicLib_7622_gpu_torch260/oy/coyjxip4s6xvtcg2t65ph3jndq756xmifu6l3oxu7y5qyksgxmln.py":45:26)
#loc28 = loc("/home/admin/zy429782/fx_experiments/torch_aot_tool/dynamicLib_7622_gpu_torch260/oy/coyjxip4s6xvtcg2t65ph3jndq756xmifu6l3oxu7y5qyksgxmln.py":45:29)
#loc29 = loc("/home/admin/zy429782/fx_experiments/torch_aot_tool/dynamicLib_7622_gpu_torch260/oy/coyjxip4s6xvtcg2t65ph3jndq756xmifu6l3oxu7y5qyksgxmln.py":46:25)
#loc30 = loc("/home/admin/zy429782/fx_experiments/torch_aot_tool/dynamicLib_7622_gpu_torch260/oy/coyjxip4s6xvtcg2t65ph3jndq756xmifu6l3oxu7y5qyksgxmln.py":46:37)
#loc31 = loc("/home/admin/zy429782/fx_experiments/torch_aot_tool/dynamicLib_7622_gpu_torch260/oy/coyjxip4s6xvtcg2t65ph3jndq756xmifu6l3oxu7y5qyksgxmln.py":47:25)
#loc32 = loc("/home/admin/zy429782/fx_experiments/torch_aot_tool/dynamicLib_7622_gpu_torch260/oy/coyjxip4s6xvtcg2t65ph3jndq756xmifu6l3oxu7y5qyksgxmln.py":47:37)
#loc33 = loc("/home/admin/zy429782/fx_experiments/torch_aot_tool/dynamicLib_7622_gpu_torch260/oy/coyjxip4s6xvtcg2t65ph3jndq756xmifu6l3oxu7y5qyksgxmln.py":47:4)
#loc34 = loc(callsite(#loc9 at #loc10))
#loc35 = loc(callsite(#loc11 at #loc10))
#loc36 = loc(callsite(#loc12 at #loc10))
#loc37 = loc(callsite(#loc13 at #loc10))
#loc38 = loc(callsite(#loc19 at #loc20))
#loc39 = loc(callsite(#loc21 at #loc19))
#loc40 = loc(callsite(#loc19 at #loc27))
#loc41 = loc(callsite(#loc39 at #loc20))
#loc42 = loc(callsite(#loc39 at #loc27))
