#loc = loc("/home/admin/zy429782/fx_experiments/torch_aot_tool/dynamicLib_7622_gpu_torch260/d5/cd55pdmtorhezi5mv7veyzpcewxicut3wuipam43bwjl5qib5br6.py":18:0)
module {
  tt.func public @triton_(%arg0: !tt.ptr<f32> {tt.divisibility = 16 : i32} loc("/home/admin/zy429782/fx_experiments/torch_aot_tool/dynamicLib_7622_gpu_torch260/d5/cd55pdmtorhezi5mv7veyzpcewxicut3wuipam43bwjl5qib5br6.py":18:0), %arg1: !tt.ptr<f32> {tt.divisibility = 16 : i32} loc("/home/admin/zy429782/fx_experiments/torch_aot_tool/dynamicLib_7622_gpu_torch260/d5/cd55pdmtorhezi5mv7veyzpcewxicut3wuipam43bwjl5qib5br6.py":18:0), %arg2: !tt.ptr<f32> {tt.divisibility = 16 : i32} loc("/home/admin/zy429782/fx_experiments/torch_aot_tool/dynamicLib_7622_gpu_torch260/d5/cd55pdmtorhezi5mv7veyzpcewxicut3wuipam43bwjl5qib5br6.py":18:0), %arg3: i32 {tt.divisibility = 16 : i32} loc("/home/admin/zy429782/fx_experiments/torch_aot_tool/dynamicLib_7622_gpu_torch260/d5/cd55pdmtorhezi5mv7veyzpcewxicut3wuipam43bwjl5qib5br6.py":18:0)) attributes {noinline = false} {
    %cst = arith.constant dense<128> : tensor<512xi32> loc(#loc1)
    %cst_0 = arith.constant dense<6400> : tensor<512xi32> loc(#loc1)
    %cst_1 = arith.constant dense<8> : tensor<512xi32> loc(#loc1)
    %cst_2 = arith.constant dense<800> : tensor<512xi32> loc(#loc1)
    %cst_3 = arith.constant dense<50> : tensor<512xi32> loc(#loc1)
    %cst_4 = arith.constant dense<16> : tensor<512xi32> loc(#loc1)
    %c512_i32 = arith.constant 512 : i32 loc(#loc1)
    %0 = tt.get_program_id x : i32 loc(#loc2)
    %1 = arith.muli %0, %c512_i32 : i32 loc(#loc3)
    %2 = tt.make_range {end = 512 : i32, start = 0 : i32} : tensor<512xi32> loc(#loc4)
    %3 = tt.splat %1 : i32 -> tensor<512xi32> loc(#loc5)
    %4 = arith.addi %3, %2 : tensor<512xi32> loc(#loc5)
    %5 = tt.splat %arg3 : i32 -> tensor<512xi32> loc(#loc6)
    %6 = arith.cmpi slt, %4, %5 : tensor<512xi32> loc(#loc6)
    %7 = arith.remsi %4, %cst_4 : tensor<512xi32> loc(#loc7)
    %8 = arith.divsi %4, %cst_4 : tensor<512xi32> loc(#loc8)
    %9 = arith.remsi %8, %cst_3 : tensor<512xi32> loc(#loc9)
    %10 = arith.divsi %4, %cst_2 : tensor<512xi32> loc(#loc10)
    %11 = arith.remsi %10, %cst_1 : tensor<512xi32> loc(#loc11)
    %12 = arith.divsi %4, %cst_0 : tensor<512xi32> loc(#loc12)
    %13 = arith.muli %11, %cst_4 : tensor<512xi32> loc(#loc13)
    %14 = arith.addi %7, %13 : tensor<512xi32> loc(#loc14)
    %15 = arith.muli %9, %cst : tensor<512xi32> loc(#loc15)
    %16 = arith.addi %14, %15 : tensor<512xi32> loc(#loc16)
    %17 = arith.muli %12, %cst_0 : tensor<512xi32> loc(#loc17)
    %18 = arith.addi %16, %17 : tensor<512xi32> loc(#loc18)
    %19 = tt.splat %arg0 : !tt.ptr<f32> -> tensor<512x!tt.ptr<f32>> loc(#loc19)
    %20 = tt.addptr %19, %18 : tensor<512x!tt.ptr<f32>>, tensor<512xi32> loc(#loc19)
    %21 = tt.load %20, %6 : tensor<512x!tt.ptr<f32>> loc(#loc20)
    %22 = tt.splat %arg1 : !tt.ptr<f32> -> tensor<512x!tt.ptr<f32>> loc(#loc21)
    %23 = tt.addptr %22, %14 : tensor<512x!tt.ptr<f32>>, tensor<512xi32> loc(#loc21)
    %24 = tt.load %23, %6 evictionPolicy = evict_last : tensor<512x!tt.ptr<f32>> loc(#loc22)
    %25 = arith.addf %21, %24 : tensor<512xf32> loc(#loc23)
    %26 = tt.splat %arg2 : !tt.ptr<f32> -> tensor<512x!tt.ptr<f32>> loc(#loc24)
    %27 = tt.addptr %26, %4 : tensor<512x!tt.ptr<f32>>, tensor<512xi32> loc(#loc24)
    tt.store %27, %25, %6 : tensor<512x!tt.ptr<f32>> loc(#loc25)
    tt.return loc(#loc26)
  } loc(#loc)
} loc(#loc)
#loc1 = loc(unknown)
#loc2 = loc("/home/admin/zy429782/fx_experiments/torch_aot_tool/dynamicLib_7622_gpu_torch260/d5/cd55pdmtorhezi5mv7veyzpcewxicut3wuipam43bwjl5qib5br6.py":19:28)
#loc3 = loc("/home/admin/zy429782/fx_experiments/torch_aot_tool/dynamicLib_7622_gpu_torch260/d5/cd55pdmtorhezi5mv7veyzpcewxicut3wuipam43bwjl5qib5br6.py":19:33)
#loc4 = loc("/home/admin/zy429782/fx_experiments/torch_aot_tool/dynamicLib_7622_gpu_torch260/d5/cd55pdmtorhezi5mv7veyzpcewxicut3wuipam43bwjl5qib5br6.py":20:36)
#loc5 = loc("/home/admin/zy429782/fx_experiments/torch_aot_tool/dynamicLib_7622_gpu_torch260/d5/cd55pdmtorhezi5mv7veyzpcewxicut3wuipam43bwjl5qib5br6.py":20:23)
#loc6 = loc("/home/admin/zy429782/fx_experiments/torch_aot_tool/dynamicLib_7622_gpu_torch260/d5/cd55pdmtorhezi5mv7veyzpcewxicut3wuipam43bwjl5qib5br6.py":21:21)
#loc7 = loc("/home/admin/zy429782/fx_experiments/torch_aot_tool/dynamicLib_7622_gpu_torch260/d5/cd55pdmtorhezi5mv7veyzpcewxicut3wuipam43bwjl5qib5br6.py":22:18)
#loc8 = loc("/home/admin/zy429782/fx_experiments/torch_aot_tool/dynamicLib_7622_gpu_torch260/d5/cd55pdmtorhezi5mv7veyzpcewxicut3wuipam43bwjl5qib5br6.py":23:20)
#loc9 = loc("/home/admin/zy429782/fx_experiments/torch_aot_tool/dynamicLib_7622_gpu_torch260/d5/cd55pdmtorhezi5mv7veyzpcewxicut3wuipam43bwjl5qib5br6.py":23:26)
#loc10 = loc("/home/admin/zy429782/fx_experiments/torch_aot_tool/dynamicLib_7622_gpu_torch260/d5/cd55pdmtorhezi5mv7veyzpcewxicut3wuipam43bwjl5qib5br6.py":24:20)
#loc11 = loc("/home/admin/zy429782/fx_experiments/torch_aot_tool/dynamicLib_7622_gpu_torch260/d5/cd55pdmtorhezi5mv7veyzpcewxicut3wuipam43bwjl5qib5br6.py":24:27)
#loc12 = loc("/home/admin/zy429782/fx_experiments/torch_aot_tool/dynamicLib_7622_gpu_torch260/d5/cd55pdmtorhezi5mv7veyzpcewxicut3wuipam43bwjl5qib5br6.py":25:20)
#loc13 = loc("/home/admin/zy429782/fx_experiments/torch_aot_tool/dynamicLib_7622_gpu_torch260/d5/cd55pdmtorhezi5mv7veyzpcewxicut3wuipam43bwjl5qib5br6.py":27:39)
#loc14 = loc("/home/admin/zy429782/fx_experiments/torch_aot_tool/dynamicLib_7622_gpu_torch260/d5/cd55pdmtorhezi5mv7veyzpcewxicut3wuipam43bwjl5qib5br6.py":27:36)
#loc15 = loc("/home/admin/zy429782/fx_experiments/torch_aot_tool/dynamicLib_7622_gpu_torch260/d5/cd55pdmtorhezi5mv7veyzpcewxicut3wuipam43bwjl5qib5br6.py":27:50)
#loc16 = loc("/home/admin/zy429782/fx_experiments/torch_aot_tool/dynamicLib_7622_gpu_torch260/d5/cd55pdmtorhezi5mv7veyzpcewxicut3wuipam43bwjl5qib5br6.py":27:46)
#loc17 = loc("/home/admin/zy429782/fx_experiments/torch_aot_tool/dynamicLib_7622_gpu_torch260/d5/cd55pdmtorhezi5mv7veyzpcewxicut3wuipam43bwjl5qib5br6.py":27:62)
#loc18 = loc("/home/admin/zy429782/fx_experiments/torch_aot_tool/dynamicLib_7622_gpu_torch260/d5/cd55pdmtorhezi5mv7veyzpcewxicut3wuipam43bwjl5qib5br6.py":27:57)
#loc19 = loc("/home/admin/zy429782/fx_experiments/torch_aot_tool/dynamicLib_7622_gpu_torch260/d5/cd55pdmtorhezi5mv7veyzpcewxicut3wuipam43bwjl5qib5br6.py":27:30)
#loc20 = loc("/home/admin/zy429782/fx_experiments/torch_aot_tool/dynamicLib_7622_gpu_torch260/d5/cd55pdmtorhezi5mv7veyzpcewxicut3wuipam43bwjl5qib5br6.py":27:68)
#loc21 = loc("/home/admin/zy429782/fx_experiments/torch_aot_tool/dynamicLib_7622_gpu_torch260/d5/cd55pdmtorhezi5mv7veyzpcewxicut3wuipam43bwjl5qib5br6.py":28:30)
#loc22 = loc("/home/admin/zy429782/fx_experiments/torch_aot_tool/dynamicLib_7622_gpu_torch260/d5/cd55pdmtorhezi5mv7veyzpcewxicut3wuipam43bwjl5qib5br6.py":28:45)
#loc23 = loc("/home/admin/zy429782/fx_experiments/torch_aot_tool/dynamicLib_7622_gpu_torch260/d5/cd55pdmtorhezi5mv7veyzpcewxicut3wuipam43bwjl5qib5br6.py":29:18)
#loc24 = loc("/home/admin/zy429782/fx_experiments/torch_aot_tool/dynamicLib_7622_gpu_torch260/d5/cd55pdmtorhezi5mv7veyzpcewxicut3wuipam43bwjl5qib5br6.py":30:25)
#loc25 = loc("/home/admin/zy429782/fx_experiments/torch_aot_tool/dynamicLib_7622_gpu_torch260/d5/cd55pdmtorhezi5mv7veyzpcewxicut3wuipam43bwjl5qib5br6.py":30:36)
#loc26 = loc("/home/admin/zy429782/fx_experiments/torch_aot_tool/dynamicLib_7622_gpu_torch260/d5/cd55pdmtorhezi5mv7veyzpcewxicut3wuipam43bwjl5qib5br6.py":30:4)
