#loc = loc("/home/admin/zy429782/fx_experiments/torch_aot_tool/dynamicLib_7622_gpu/gp/cgpqnanhf645zczmn6pagexw7azue7q675cburz7ymzk673uie23.py":20:0)
#loc15 = loc(unknown)
module {
  tt.func public @triton__0d1d2d3de4de(%arg0: !tt.ptr<f32, 1> {tt.divisibility = 16 : i32} loc("/home/admin/zy429782/fx_experiments/torch_aot_tool/dynamicLib_7622_gpu/gp/cgpqnanhf645zczmn6pagexw7azue7q675cburz7ymzk673uie23.py":20:0), %arg1: !tt.ptr<f32, 1> {tt.divisibility = 16 : i32} loc("/home/admin/zy429782/fx_experiments/torch_aot_tool/dynamicLib_7622_gpu/gp/cgpqnanhf645zczmn6pagexw7azue7q675cburz7ymzk673uie23.py":20:0), %arg2: !tt.ptr<f32, 1> {tt.divisibility = 16 : i32} loc("/home/admin/zy429782/fx_experiments/torch_aot_tool/dynamicLib_7622_gpu/gp/cgpqnanhf645zczmn6pagexw7azue7q675cburz7ymzk673uie23.py":20:0), %arg3: i32 {tt.divisibility = 16 : i32, tt.max_divisibility = 16 : i32} loc("/home/admin/zy429782/fx_experiments/torch_aot_tool/dynamicLib_7622_gpu/gp/cgpqnanhf645zczmn6pagexw7azue7q675cburz7ymzk673uie23.py":20:0), %arg4: i32 {tt.divisibility = 16 : i32, tt.max_divisibility = 16 : i32} loc("/home/admin/zy429782/fx_experiments/torch_aot_tool/dynamicLib_7622_gpu/gp/cgpqnanhf645zczmn6pagexw7azue7q675cburz7ymzk673uie23.py":20:0)) attributes {noinline = false} {
    %c16_i32 = arith.constant 16 : i32 loc(#loc1)
    %cst = arith.constant dense<0.000000e+00> : tensor<1x16xf32> loc(#loc2)
    %cst_0 = arith.constant dense<1.600000e+01> : tensor<1x1xf32> loc(#loc3)
    %cst_1 = arith.constant dense<16> : tensor<1x16xi32> loc(#loc4)
    %0 = tt.get_program_id x : i32 loc(#loc5)
    %1 = arith.cmpi slt, %0, %arg3 : i32 loc(#loc6)
    %2 = tt.splat %1 : (i1) -> tensor<1x1xi1> loc(#loc6)
    %3 = tt.make_range {end = 16 : i32, start = 0 : i32} : tensor<16xi32> loc(#loc7)
    %4 = tt.expand_dims %3 {axis = 0 : i32} : (tensor<16xi32>) -> tensor<1x16xi32> loc(#loc8)
    %5 = arith.cmpi slt, %4, %cst_1 : tensor<1x16xi32> loc(#loc4)
    %6 = arith.muli %0, %c16_i32 : i32 loc(#loc1)
    %7 = tt.splat %6 : (i32) -> tensor<1x16xi32> loc(#loc9)
    %8 = arith.addi %4, %7 : tensor<1x16xi32> loc(#loc9)
    %9 = tt.splat %arg0 : (!tt.ptr<f32, 1>) -> tensor<1x16x!tt.ptr<f32, 1>> loc(#loc10)
    %10 = tt.addptr %9, %8 : tensor<1x16x!tt.ptr<f32, 1>>, tensor<1x16xi32> loc(#loc10)
    %11 = tt.splat %1 : (i1) -> tensor<1x16xi1> loc(#loc11)
    %12 = arith.andi %5, %11 : tensor<1x16xi1> loc(#loc11)
    %13 = tt.load %10, %12, %cst {cache = 1 : i32, evict = 1 : i32, isVolatile = false} : tensor<1x16xf32> loc(#loc2)
    %14 = arith.select %12, %13, %cst : tensor<1x16xi1>, tensor<1x16xf32> loc(#loc12)
    %15 = "tt.reduce"(%14) <{axis = 1 : i32}> ({
    ^bb0(%arg5: f32 loc(unknown), %arg6: f32 loc(unknown)):
      %28 = arith.addf %arg5, %arg6 : f32 loc(#loc32)
      tt.reduce.return %28 : f32 loc(#loc29)
    }) : (tensor<1x16xf32>) -> tensor<1xf32> loc(#loc29)
    %16 = tt.expand_dims %15 {axis = 1 : i32} : (tensor<1xf32>) -> tensor<1x1xf32> loc(#loc17)
    %17 = arith.divf %16, %cst_0 : tensor<1x1xf32> loc(#loc18)
    %18 = tt.broadcast %17 : (tensor<1x1xf32>) -> tensor<1x16xf32> loc(#loc19)
    %19 = arith.subf %13, %18 : tensor<1x16xf32> loc(#loc19)
    %20 = arith.mulf %19, %19 : tensor<1x16xf32> loc(#loc20)
    %21 = arith.select %12, %20, %cst : tensor<1x16xi1>, tensor<1x16xf32> loc(#loc21)
    %22 = "tt.reduce"(%21) <{axis = 1 : i32}> ({
    ^bb0(%arg5: f32 loc(unknown), %arg6: f32 loc(unknown)):
      %28 = arith.addf %arg5, %arg6 : f32 loc(#loc33)
      tt.reduce.return %28 : f32 loc(#loc31)
    }) : (tensor<1x16xf32>) -> tensor<1xf32> loc(#loc31)
    %23 = tt.expand_dims %22 {axis = 1 : i32} : (tensor<1xf32>) -> tensor<1x1xf32> loc(#loc23)
    %24 = tt.addptr %arg1, %0 : !tt.ptr<f32, 1>, i32 loc(#loc24)
    %25 = tt.splat %24 : (!tt.ptr<f32, 1>) -> tensor<1x1x!tt.ptr<f32, 1>> loc(#loc24)
    tt.store %25, %17, %2 {cache = 1 : i32, evict = 1 : i32} : tensor<1x1xf32> loc(#loc25)
    %26 = tt.addptr %arg2, %0 : !tt.ptr<f32, 1>, i32 loc(#loc26)
    %27 = tt.splat %26 : (!tt.ptr<f32, 1>) -> tensor<1x1x!tt.ptr<f32, 1>> loc(#loc26)
    tt.store %27, %23, %2 {cache = 1 : i32, evict = 1 : i32} : tensor<1x1xf32> loc(#loc27)
    tt.return loc(#loc28)
  } loc(#loc)
} loc(#loc)
#loc1 = loc("/home/admin/zy429782/fx_experiments/torch_aot_tool/dynamicLib_7622_gpu/gp/cgpqnanhf645zczmn6pagexw7azue7q675cburz7ymzk673uie23.py":31:39)
#loc2 = loc("/home/admin/zy429782/fx_experiments/torch_aot_tool/dynamicLib_7622_gpu/gp/cgpqnanhf645zczmn6pagexw7azue7q675cburz7ymzk673uie23.py":31:45)
#loc3 = loc("/home/admin/zy429782/fx_experiments/torch_aot_tool/dynamicLib_7622_gpu/gp/cgpqnanhf645zczmn6pagexw7azue7q675cburz7ymzk673uie23.py":38:19)
#loc4 = loc("/home/admin/zy429782/fx_experiments/torch_aot_tool/dynamicLib_7622_gpu/gp/cgpqnanhf645zczmn6pagexw7azue7q675cburz7ymzk673uie23.py":28:21)
#loc5 = loc("/home/admin/zy429782/fx_experiments/torch_aot_tool/dynamicLib_7622_gpu/gp/cgpqnanhf645zczmn6pagexw7azue7q675cburz7ymzk673uie23.py":23:28)
#loc6 = loc("/home/admin/zy429782/fx_experiments/torch_aot_tool/dynamicLib_7622_gpu/gp/cgpqnanhf645zczmn6pagexw7azue7q675cburz7ymzk673uie23.py":25:21)
#loc7 = loc("/home/admin/zy429782/fx_experiments/torch_aot_tool/dynamicLib_7622_gpu/gp/cgpqnanhf645zczmn6pagexw7azue7q675cburz7ymzk673uie23.py":26:26)
#loc8 = loc("/home/admin/zy429782/fx_experiments/torch_aot_tool/dynamicLib_7622_gpu/gp/cgpqnanhf645zczmn6pagexw7azue7q675cburz7ymzk673uie23.py":26:13)
#loc9 = loc("/home/admin/zy429782/fx_experiments/torch_aot_tool/dynamicLib_7622_gpu/gp/cgpqnanhf645zczmn6pagexw7azue7q675cburz7ymzk673uie23.py":31:36)
#loc10 = loc("/home/admin/zy429782/fx_experiments/torch_aot_tool/dynamicLib_7622_gpu/gp/cgpqnanhf645zczmn6pagexw7azue7q675cburz7ymzk673uie23.py":31:30)
#loc11 = loc("/home/admin/zy429782/fx_experiments/torch_aot_tool/dynamicLib_7622_gpu/gp/cgpqnanhf645zczmn6pagexw7azue7q675cburz7ymzk673uie23.py":31:53)
#loc12 = loc("/home/admin/zy429782/fx_experiments/torch_aot_tool/dynamicLib_7622_gpu/gp/cgpqnanhf645zczmn6pagexw7azue7q675cburz7ymzk673uie23.py":35:41)
#loc13 = loc("/home/admin/zy429782/miniforge3/envs/compiled_torch/lib/python3.8/site-packages/triton/language/standard.py":243:36)
#loc14 = loc("/home/admin/zy429782/fx_experiments/torch_aot_tool/dynamicLib_7622_gpu/gp/cgpqnanhf645zczmn6pagexw7azue7q675cburz7ymzk673uie23.py":36:24)
#loc16 = loc("/home/admin/zy429782/miniforge3/envs/compiled_torch/lib/python3.8/site-packages/triton/language/standard.py":233:15)
#loc17 = loc("/home/admin/zy429782/fx_experiments/torch_aot_tool/dynamicLib_7622_gpu/gp/cgpqnanhf645zczmn6pagexw7azue7q675cburz7ymzk673uie23.py":36:11)
#loc18 = loc("/home/admin/zy429782/fx_experiments/torch_aot_tool/dynamicLib_7622_gpu/gp/cgpqnanhf645zczmn6pagexw7azue7q675cburz7ymzk673uie23.py":39:19)
#loc19 = loc("/home/admin/zy429782/fx_experiments/torch_aot_tool/dynamicLib_7622_gpu/gp/cgpqnanhf645zczmn6pagexw7azue7q675cburz7ymzk673uie23.py":40:19)
#loc20 = loc("/home/admin/zy429782/fx_experiments/torch_aot_tool/dynamicLib_7622_gpu/gp/cgpqnanhf645zczmn6pagexw7azue7q675cburz7ymzk673uie23.py":41:20)
#loc21 = loc("/home/admin/zy429782/fx_experiments/torch_aot_tool/dynamicLib_7622_gpu/gp/cgpqnanhf645zczmn6pagexw7azue7q675cburz7ymzk673uie23.py":43:43)
#loc22 = loc("/home/admin/zy429782/fx_experiments/torch_aot_tool/dynamicLib_7622_gpu/gp/cgpqnanhf645zczmn6pagexw7azue7q675cburz7ymzk673uie23.py":44:26)
#loc23 = loc("/home/admin/zy429782/fx_experiments/torch_aot_tool/dynamicLib_7622_gpu/gp/cgpqnanhf645zczmn6pagexw7azue7q675cburz7ymzk673uie23.py":44:12)
#loc24 = loc("/home/admin/zy429782/fx_experiments/torch_aot_tool/dynamicLib_7622_gpu/gp/cgpqnanhf645zczmn6pagexw7azue7q675cburz7ymzk673uie23.py":45:25)
#loc25 = loc("/home/admin/zy429782/fx_experiments/torch_aot_tool/dynamicLib_7622_gpu/gp/cgpqnanhf645zczmn6pagexw7azue7q675cburz7ymzk673uie23.py":45:37)
#loc26 = loc("/home/admin/zy429782/fx_experiments/torch_aot_tool/dynamicLib_7622_gpu/gp/cgpqnanhf645zczmn6pagexw7azue7q675cburz7ymzk673uie23.py":46:25)
#loc27 = loc("/home/admin/zy429782/fx_experiments/torch_aot_tool/dynamicLib_7622_gpu/gp/cgpqnanhf645zczmn6pagexw7azue7q675cburz7ymzk673uie23.py":46:37)
#loc28 = loc("/home/admin/zy429782/fx_experiments/torch_aot_tool/dynamicLib_7622_gpu/gp/cgpqnanhf645zczmn6pagexw7azue7q675cburz7ymzk673uie23.py":46:4)
#loc29 = loc(callsite(#loc13 at #loc14))
#loc30 = loc(callsite(#loc16 at #loc13))
#loc31 = loc(callsite(#loc13 at #loc22))
#loc32 = loc(callsite(#loc30 at #loc14))
#loc33 = loc(callsite(#loc30 at #loc22))
