#loc = loc("/home/admin/zy429782/fx_experiments/torch_aot_tool/dynamicLib_7622_gpu/yy/cyyvalbqnff5omgmlnxer3muf3xlwusgrwxmgqidozscbgli5hjw.py":20:0)
module {
  tt.func public @triton__0d1d2d3d4d5de(%arg0: !tt.ptr<f32, 1> {tt.divisibility = 16 : i32} loc("/home/admin/zy429782/fx_experiments/torch_aot_tool/dynamicLib_7622_gpu/yy/cyyvalbqnff5omgmlnxer3muf3xlwusgrwxmgqidozscbgli5hjw.py":20:0), %arg1: !tt.ptr<f32, 1> {tt.divisibility = 16 : i32} loc("/home/admin/zy429782/fx_experiments/torch_aot_tool/dynamicLib_7622_gpu/yy/cyyvalbqnff5omgmlnxer3muf3xlwusgrwxmgqidozscbgli5hjw.py":20:0), %arg2: !tt.ptr<f32, 1> {tt.divisibility = 16 : i32} loc("/home/admin/zy429782/fx_experiments/torch_aot_tool/dynamicLib_7622_gpu/yy/cyyvalbqnff5omgmlnxer3muf3xlwusgrwxmgqidozscbgli5hjw.py":20:0), %arg3: !tt.ptr<f32, 1> {tt.divisibility = 16 : i32} loc("/home/admin/zy429782/fx_experiments/torch_aot_tool/dynamicLib_7622_gpu/yy/cyyvalbqnff5omgmlnxer3muf3xlwusgrwxmgqidozscbgli5hjw.py":20:0), %arg4: !tt.ptr<f32, 1> {tt.divisibility = 16 : i32} loc("/home/admin/zy429782/fx_experiments/torch_aot_tool/dynamicLib_7622_gpu/yy/cyyvalbqnff5omgmlnxer3muf3xlwusgrwxmgqidozscbgli5hjw.py":20:0), %arg5: i32 {tt.divisibility = 16 : i32, tt.max_divisibility = 16 : i32} loc("/home/admin/zy429782/fx_experiments/torch_aot_tool/dynamicLib_7622_gpu/yy/cyyvalbqnff5omgmlnxer3muf3xlwusgrwxmgqidozscbgli5hjw.py":20:0)) attributes {noinline = false} {
    %cst = arith.constant dense<1.000000e+00> : tensor<256xf32> loc(#loc1)
    %cst_0 = arith.constant dense<0.00999999977> : tensor<256xf32> loc(#loc2)
    %cst_1 = arith.constant dense<0.000000e+00> : tensor<256xf32> loc(#loc3)
    %cst_2 = arith.constant dense<1.000000e-03> : tensor<256xf32> loc(#loc4)
    %cst_3 = arith.constant dense<128> : tensor<256xi32> loc(#loc5)
    %c256_i32 = arith.constant 256 : i32 loc(#loc6)
    %0 = tt.get_program_id x : i32 loc(#loc7)
    %1 = arith.muli %0, %c256_i32 : i32 loc(#loc6)
    %2 = tt.make_range {end = 256 : i32, start = 0 : i32} : tensor<256xi32> loc(#loc8)
    %3 = tt.splat %1 : (i32) -> tensor<256xi32> loc(#loc9)
    %4 = arith.addi %3, %2 : tensor<256xi32> loc(#loc9)
    %5 = tt.splat %arg5 : (i32) -> tensor<256xi32> loc(#loc10)
    %6 = arith.cmpi slt, %4, %5 : tensor<256xi32> loc(#loc10)
    %7 = arith.remsi %4, %cst_3 : tensor<256xi32> loc(#loc5)
    %8 = tt.splat %arg0 : (!tt.ptr<f32, 1>) -> tensor<256x!tt.ptr<f32, 1>> loc(#loc11)
    %9 = tt.addptr %8, %4 : tensor<256x!tt.ptr<f32, 1>>, tensor<256xi32> loc(#loc11)
    %10 = tt.load %9, %6 {cache = 1 : i32, evict = 1 : i32, isVolatile = false} : tensor<256xf32> loc(#loc12)
    %11 = tt.splat %arg1 : (!tt.ptr<f32, 1>) -> tensor<256x!tt.ptr<f32, 1>> loc(#loc13)
    %12 = tt.addptr %11, %7 : tensor<256x!tt.ptr<f32, 1>>, tensor<256xi32> loc(#loc13)
    %13 = tt.load %12, %6 {cache = 1 : i32, evict = 3 : i32, isVolatile = false} : tensor<256xf32> loc(#loc14)
    %14 = tt.splat %arg2 : (!tt.ptr<f32, 1>) -> tensor<256x!tt.ptr<f32, 1>> loc(#loc15)
    %15 = tt.addptr %14, %7 : tensor<256x!tt.ptr<f32, 1>>, tensor<256xi32> loc(#loc15)
    %16 = tt.load %15, %6 {cache = 1 : i32, evict = 3 : i32, isVolatile = false} : tensor<256xf32> loc(#loc16)
    %17 = tt.splat %arg3 : (!tt.ptr<f32, 1>) -> tensor<256x!tt.ptr<f32, 1>> loc(#loc17)
    %18 = tt.addptr %17, %7 : tensor<256x!tt.ptr<f32, 1>>, tensor<256xi32> loc(#loc17)
    %19 = tt.load %18, %6 {cache = 1 : i32, evict = 3 : i32, isVolatile = false} : tensor<256xf32> loc(#loc18)
    %20 = tt.splat %arg4 : (!tt.ptr<f32, 1>) -> tensor<256x!tt.ptr<f32, 1>> loc(#loc19)
    %21 = tt.addptr %20, %7 : tensor<256x!tt.ptr<f32, 1>>, tensor<256xi32> loc(#loc19)
    %22 = tt.load %21, %6 {cache = 1 : i32, evict = 3 : i32, isVolatile = false} : tensor<256xf32> loc(#loc20)
    %23 = arith.subf %10, %13 : tensor<256xf32> loc(#loc21)
    %24 = arith.addf %16, %cst_2 : tensor<256xf32> loc(#loc4)
    %25 = tt.extern_elementwise %24 {libname = "libdevice", libpath = "/home/admin/zy429782/miniforge3/envs/compiled_torch/lib/python3.8/site-packages/triton/language/../third_party/cuda/lib/libdevice.10.bc", pure = true, symbol = "__nv_sqrtf"} : (tensor<256xf32>) -> tensor<256xf32> loc(#loc22)
    %26 = arith.divf %cst, %25 : tensor<256xf32> loc(#loc23)
    %27 = arith.mulf %23, %26 : tensor<256xf32> loc(#loc24)
    %28 = arith.mulf %27, %19 : tensor<256xf32> loc(#loc25)
    %29 = arith.addf %28, %22 : tensor<256xf32> loc(#loc26)
    %30 = arith.cmpf ogt, %29, %cst_1 : tensor<256xf32> loc(#loc3)
    %31 = arith.mulf %29, %cst_0 : tensor<256xf32> loc(#loc2)
    %32 = arith.select %30, %29, %31 : tensor<256xi1>, tensor<256xf32> loc(#loc27)
    tt.store %9, %32, %6 {cache = 1 : i32, evict = 1 : i32} : tensor<256xf32> loc(#loc28)
    tt.return loc(#loc29)
  } loc(#loc)
} loc(#loc)
#loc1 = loc("/home/admin/zy429782/fx_experiments/torch_aot_tool/dynamicLib_7622_gpu/yy/cyyvalbqnff5omgmlnxer3muf3xlwusgrwxmgqidozscbgli5hjw.py":37:18)
#loc2 = loc("/home/admin/zy429782/fx_experiments/torch_aot_tool/dynamicLib_7622_gpu/yy/cyyvalbqnff5omgmlnxer3muf3xlwusgrwxmgqidozscbgli5hjw.py":44:20)
#loc3 = loc("/home/admin/zy429782/fx_experiments/torch_aot_tool/dynamicLib_7622_gpu/yy/cyyvalbqnff5omgmlnxer3muf3xlwusgrwxmgqidozscbgli5hjw.py":42:20)
#loc4 = loc("/home/admin/zy429782/fx_experiments/torch_aot_tool/dynamicLib_7622_gpu/yy/cyyvalbqnff5omgmlnxer3muf3xlwusgrwxmgqidozscbgli5hjw.py":33:18)
#loc5 = loc("/home/admin/zy429782/fx_experiments/torch_aot_tool/dynamicLib_7622_gpu/yy/cyyvalbqnff5omgmlnxer3muf3xlwusgrwxmgqidozscbgli5hjw.py":25:18)
#loc6 = loc("/home/admin/zy429782/fx_experiments/torch_aot_tool/dynamicLib_7622_gpu/yy/cyyvalbqnff5omgmlnxer3muf3xlwusgrwxmgqidozscbgli5hjw.py":21:33)
#loc7 = loc("/home/admin/zy429782/fx_experiments/torch_aot_tool/dynamicLib_7622_gpu/yy/cyyvalbqnff5omgmlnxer3muf3xlwusgrwxmgqidozscbgli5hjw.py":21:28)
#loc8 = loc("/home/admin/zy429782/fx_experiments/torch_aot_tool/dynamicLib_7622_gpu/yy/cyyvalbqnff5omgmlnxer3muf3xlwusgrwxmgqidozscbgli5hjw.py":22:36)
#loc9 = loc("/home/admin/zy429782/fx_experiments/torch_aot_tool/dynamicLib_7622_gpu/yy/cyyvalbqnff5omgmlnxer3muf3xlwusgrwxmgqidozscbgli5hjw.py":22:23)
#loc10 = loc("/home/admin/zy429782/fx_experiments/torch_aot_tool/dynamicLib_7622_gpu/yy/cyyvalbqnff5omgmlnxer3muf3xlwusgrwxmgqidozscbgli5hjw.py":23:21)
#loc11 = loc("/home/admin/zy429782/fx_experiments/torch_aot_tool/dynamicLib_7622_gpu/yy/cyyvalbqnff5omgmlnxer3muf3xlwusgrwxmgqidozscbgli5hjw.py":26:34)
#loc12 = loc("/home/admin/zy429782/fx_experiments/torch_aot_tool/dynamicLib_7622_gpu/yy/cyyvalbqnff5omgmlnxer3muf3xlwusgrwxmgqidozscbgli5hjw.py":26:39)
#loc13 = loc("/home/admin/zy429782/fx_experiments/torch_aot_tool/dynamicLib_7622_gpu/yy/cyyvalbqnff5omgmlnxer3muf3xlwusgrwxmgqidozscbgli5hjw.py":27:30)
#loc14 = loc("/home/admin/zy429782/fx_experiments/torch_aot_tool/dynamicLib_7622_gpu/yy/cyyvalbqnff5omgmlnxer3muf3xlwusgrwxmgqidozscbgli5hjw.py":27:35)
#loc15 = loc("/home/admin/zy429782/fx_experiments/torch_aot_tool/dynamicLib_7622_gpu/yy/cyyvalbqnff5omgmlnxer3muf3xlwusgrwxmgqidozscbgli5hjw.py":28:30)
#loc16 = loc("/home/admin/zy429782/fx_experiments/torch_aot_tool/dynamicLib_7622_gpu/yy/cyyvalbqnff5omgmlnxer3muf3xlwusgrwxmgqidozscbgli5hjw.py":28:35)
#loc17 = loc("/home/admin/zy429782/fx_experiments/torch_aot_tool/dynamicLib_7622_gpu/yy/cyyvalbqnff5omgmlnxer3muf3xlwusgrwxmgqidozscbgli5hjw.py":29:31)
#loc18 = loc("/home/admin/zy429782/fx_experiments/torch_aot_tool/dynamicLib_7622_gpu/yy/cyyvalbqnff5omgmlnxer3muf3xlwusgrwxmgqidozscbgli5hjw.py":29:36)
#loc19 = loc("/home/admin/zy429782/fx_experiments/torch_aot_tool/dynamicLib_7622_gpu/yy/cyyvalbqnff5omgmlnxer3muf3xlwusgrwxmgqidozscbgli5hjw.py":30:31)
#loc20 = loc("/home/admin/zy429782/fx_experiments/torch_aot_tool/dynamicLib_7622_gpu/yy/cyyvalbqnff5omgmlnxer3muf3xlwusgrwxmgqidozscbgli5hjw.py":30:36)
#loc21 = loc("/home/admin/zy429782/fx_experiments/torch_aot_tool/dynamicLib_7622_gpu/yy/cyyvalbqnff5omgmlnxer3muf3xlwusgrwxmgqidozscbgli5hjw.py":31:18)
#loc22 = loc("/home/admin/zy429782/fx_experiments/torch_aot_tool/dynamicLib_7622_gpu/yy/cyyvalbqnff5omgmlnxer3muf3xlwusgrwxmgqidozscbgli5hjw.py":34:26)
#loc23 = loc("/home/admin/zy429782/fx_experiments/torch_aot_tool/dynamicLib_7622_gpu/yy/cyyvalbqnff5omgmlnxer3muf3xlwusgrwxmgqidozscbgli5hjw.py":35:15)
#loc24 = loc("/home/admin/zy429782/fx_experiments/torch_aot_tool/dynamicLib_7622_gpu/yy/cyyvalbqnff5omgmlnxer3muf3xlwusgrwxmgqidozscbgli5hjw.py":38:19)
#loc25 = loc("/home/admin/zy429782/fx_experiments/torch_aot_tool/dynamicLib_7622_gpu/yy/cyyvalbqnff5omgmlnxer3muf3xlwusgrwxmgqidozscbgli5hjw.py":39:20)
#loc26 = loc("/home/admin/zy429782/fx_experiments/torch_aot_tool/dynamicLib_7622_gpu/yy/cyyvalbqnff5omgmlnxer3muf3xlwusgrwxmgqidozscbgli5hjw.py":40:20)
#loc27 = loc("/home/admin/zy429782/fx_experiments/torch_aot_tool/dynamicLib_7622_gpu/yy/cyyvalbqnff5omgmlnxer3muf3xlwusgrwxmgqidozscbgli5hjw.py":45:35)
#loc28 = loc("/home/admin/zy429782/fx_experiments/torch_aot_tool/dynamicLib_7622_gpu/yy/cyyvalbqnff5omgmlnxer3muf3xlwusgrwxmgqidozscbgli5hjw.py":46:40)
#loc29 = loc("/home/admin/zy429782/fx_experiments/torch_aot_tool/dynamicLib_7622_gpu/yy/cyyvalbqnff5omgmlnxer3muf3xlwusgrwxmgqidozscbgli5hjw.py":46:4)
