#loc = loc("/home/admin/zy429782/fx_experiments/torch_aot_tool/dynamicLib_7622_gpu/l6/cl65xknsmhvdzvpivttvbp6f3osgfs6abk7h623mgjpqnufnowgi.py":20:0)
module {
  tt.func public @triton__0d1d2d3de(%arg0: !tt.ptr<f32, 1> {tt.divisibility = 16 : i32} loc("/home/admin/zy429782/fx_experiments/torch_aot_tool/dynamicLib_7622_gpu/l6/cl65xknsmhvdzvpivttvbp6f3osgfs6abk7h623mgjpqnufnowgi.py":20:0), %arg1: !tt.ptr<f32, 1> {tt.divisibility = 16 : i32} loc("/home/admin/zy429782/fx_experiments/torch_aot_tool/dynamicLib_7622_gpu/l6/cl65xknsmhvdzvpivttvbp6f3osgfs6abk7h623mgjpqnufnowgi.py":20:0), %arg2: !tt.ptr<f32, 1> {tt.divisibility = 16 : i32} loc("/home/admin/zy429782/fx_experiments/torch_aot_tool/dynamicLib_7622_gpu/l6/cl65xknsmhvdzvpivttvbp6f3osgfs6abk7h623mgjpqnufnowgi.py":20:0), %arg3: i32 {tt.divisibility = 16 : i32, tt.max_divisibility = 16 : i32} loc("/home/admin/zy429782/fx_experiments/torch_aot_tool/dynamicLib_7622_gpu/l6/cl65xknsmhvdzvpivttvbp6f3osgfs6abk7h623mgjpqnufnowgi.py":20:0)) attributes {noinline = false} {
    %cst = arith.constant dense<128> : tensor<512xi32> loc(#loc1)
    %cst_0 = arith.constant dense<6400> : tensor<512xi32> loc(#loc2)
    %cst_1 = arith.constant dense<8> : tensor<512xi32> loc(#loc3)
    %cst_2 = arith.constant dense<800> : tensor<512xi32> loc(#loc4)
    %cst_3 = arith.constant dense<50> : tensor<512xi32> loc(#loc5)
    %cst_4 = arith.constant dense<16> : tensor<512xi32> loc(#loc6)
    %c512_i32 = arith.constant 512 : i32 loc(#loc7)
    %0 = tt.get_program_id x : i32 loc(#loc8)
    %1 = arith.muli %0, %c512_i32 : i32 loc(#loc7)
    %2 = tt.make_range {end = 512 : i32, start = 0 : i32} : tensor<512xi32> loc(#loc9)
    %3 = tt.splat %1 : (i32) -> tensor<512xi32> loc(#loc10)
    %4 = arith.addi %3, %2 : tensor<512xi32> loc(#loc10)
    %5 = tt.splat %arg3 : (i32) -> tensor<512xi32> loc(#loc11)
    %6 = arith.cmpi slt, %4, %5 : tensor<512xi32> loc(#loc11)
    %7 = arith.remsi %4, %cst_4 : tensor<512xi32> loc(#loc6)
    %8 = arith.divsi %4, %cst_4 : tensor<512xi32> loc(#loc12)
    %9 = arith.remsi %8, %cst_3 : tensor<512xi32> loc(#loc5)
    %10 = arith.divsi %4, %cst_2 : tensor<512xi32> loc(#loc4)
    %11 = arith.remsi %10, %cst_1 : tensor<512xi32> loc(#loc3)
    %12 = arith.divsi %4, %cst_0 : tensor<512xi32> loc(#loc2)
    %13 = arith.muli %11, %cst_4 : tensor<512xi32> loc(#loc13)
    %14 = arith.addi %7, %13 : tensor<512xi32> loc(#loc14)
    %15 = arith.muli %9, %cst : tensor<512xi32> loc(#loc1)
    %16 = arith.addi %14, %15 : tensor<512xi32> loc(#loc15)
    %17 = arith.muli %12, %cst_0 : tensor<512xi32> loc(#loc16)
    %18 = arith.addi %16, %17 : tensor<512xi32> loc(#loc17)
    %19 = tt.splat %arg0 : (!tt.ptr<f32, 1>) -> tensor<512x!tt.ptr<f32, 1>> loc(#loc18)
    %20 = tt.addptr %19, %18 : tensor<512x!tt.ptr<f32, 1>>, tensor<512xi32> loc(#loc18)
    %21 = tt.load %20, %6 {cache = 1 : i32, evict = 1 : i32, isVolatile = false} : tensor<512xf32> loc(#loc19)
    %22 = tt.splat %arg1 : (!tt.ptr<f32, 1>) -> tensor<512x!tt.ptr<f32, 1>> loc(#loc20)
    %23 = tt.addptr %22, %14 : tensor<512x!tt.ptr<f32, 1>>, tensor<512xi32> loc(#loc20)
    %24 = tt.load %23, %6 {cache = 1 : i32, evict = 3 : i32, isVolatile = false} : tensor<512xf32> loc(#loc21)
    %25 = arith.addf %21, %24 : tensor<512xf32> loc(#loc22)
    %26 = tt.splat %arg2 : (!tt.ptr<f32, 1>) -> tensor<512x!tt.ptr<f32, 1>> loc(#loc23)
    %27 = tt.addptr %26, %4 : tensor<512x!tt.ptr<f32, 1>>, tensor<512xi32> loc(#loc23)
    tt.store %27, %25, %6 {cache = 1 : i32, evict = 1 : i32} : tensor<512xf32> loc(#loc24)
    tt.return loc(#loc25)
  } loc(#loc)
} loc(#loc)
#loc1 = loc("/home/admin/zy429782/fx_experiments/torch_aot_tool/dynamicLib_7622_gpu/l6/cl65xknsmhvdzvpivttvbp6f3osgfs6abk7h623mgjpqnufnowgi.py":29:50)
#loc2 = loc("/home/admin/zy429782/fx_experiments/torch_aot_tool/dynamicLib_7622_gpu/l6/cl65xknsmhvdzvpivttvbp6f3osgfs6abk7h623mgjpqnufnowgi.py":27:20)
#loc3 = loc("/home/admin/zy429782/fx_experiments/torch_aot_tool/dynamicLib_7622_gpu/l6/cl65xknsmhvdzvpivttvbp6f3osgfs6abk7h623mgjpqnufnowgi.py":26:27)
#loc4 = loc("/home/admin/zy429782/fx_experiments/torch_aot_tool/dynamicLib_7622_gpu/l6/cl65xknsmhvdzvpivttvbp6f3osgfs6abk7h623mgjpqnufnowgi.py":26:20)
#loc5 = loc("/home/admin/zy429782/fx_experiments/torch_aot_tool/dynamicLib_7622_gpu/l6/cl65xknsmhvdzvpivttvbp6f3osgfs6abk7h623mgjpqnufnowgi.py":25:26)
#loc6 = loc("/home/admin/zy429782/fx_experiments/torch_aot_tool/dynamicLib_7622_gpu/l6/cl65xknsmhvdzvpivttvbp6f3osgfs6abk7h623mgjpqnufnowgi.py":24:18)
#loc7 = loc("/home/admin/zy429782/fx_experiments/torch_aot_tool/dynamicLib_7622_gpu/l6/cl65xknsmhvdzvpivttvbp6f3osgfs6abk7h623mgjpqnufnowgi.py":21:33)
#loc8 = loc("/home/admin/zy429782/fx_experiments/torch_aot_tool/dynamicLib_7622_gpu/l6/cl65xknsmhvdzvpivttvbp6f3osgfs6abk7h623mgjpqnufnowgi.py":21:28)
#loc9 = loc("/home/admin/zy429782/fx_experiments/torch_aot_tool/dynamicLib_7622_gpu/l6/cl65xknsmhvdzvpivttvbp6f3osgfs6abk7h623mgjpqnufnowgi.py":22:36)
#loc10 = loc("/home/admin/zy429782/fx_experiments/torch_aot_tool/dynamicLib_7622_gpu/l6/cl65xknsmhvdzvpivttvbp6f3osgfs6abk7h623mgjpqnufnowgi.py":22:23)
#loc11 = loc("/home/admin/zy429782/fx_experiments/torch_aot_tool/dynamicLib_7622_gpu/l6/cl65xknsmhvdzvpivttvbp6f3osgfs6abk7h623mgjpqnufnowgi.py":23:21)
#loc12 = loc("/home/admin/zy429782/fx_experiments/torch_aot_tool/dynamicLib_7622_gpu/l6/cl65xknsmhvdzvpivttvbp6f3osgfs6abk7h623mgjpqnufnowgi.py":25:20)
#loc13 = loc("/home/admin/zy429782/fx_experiments/torch_aot_tool/dynamicLib_7622_gpu/l6/cl65xknsmhvdzvpivttvbp6f3osgfs6abk7h623mgjpqnufnowgi.py":29:39)
#loc14 = loc("/home/admin/zy429782/fx_experiments/torch_aot_tool/dynamicLib_7622_gpu/l6/cl65xknsmhvdzvpivttvbp6f3osgfs6abk7h623mgjpqnufnowgi.py":29:36)
#loc15 = loc("/home/admin/zy429782/fx_experiments/torch_aot_tool/dynamicLib_7622_gpu/l6/cl65xknsmhvdzvpivttvbp6f3osgfs6abk7h623mgjpqnufnowgi.py":29:46)
#loc16 = loc("/home/admin/zy429782/fx_experiments/torch_aot_tool/dynamicLib_7622_gpu/l6/cl65xknsmhvdzvpivttvbp6f3osgfs6abk7h623mgjpqnufnowgi.py":29:62)
#loc17 = loc("/home/admin/zy429782/fx_experiments/torch_aot_tool/dynamicLib_7622_gpu/l6/cl65xknsmhvdzvpivttvbp6f3osgfs6abk7h623mgjpqnufnowgi.py":29:57)
#loc18 = loc("/home/admin/zy429782/fx_experiments/torch_aot_tool/dynamicLib_7622_gpu/l6/cl65xknsmhvdzvpivttvbp6f3osgfs6abk7h623mgjpqnufnowgi.py":29:30)
#loc19 = loc("/home/admin/zy429782/fx_experiments/torch_aot_tool/dynamicLib_7622_gpu/l6/cl65xknsmhvdzvpivttvbp6f3osgfs6abk7h623mgjpqnufnowgi.py":29:68)
#loc20 = loc("/home/admin/zy429782/fx_experiments/torch_aot_tool/dynamicLib_7622_gpu/l6/cl65xknsmhvdzvpivttvbp6f3osgfs6abk7h623mgjpqnufnowgi.py":30:30)
#loc21 = loc("/home/admin/zy429782/fx_experiments/torch_aot_tool/dynamicLib_7622_gpu/l6/cl65xknsmhvdzvpivttvbp6f3osgfs6abk7h623mgjpqnufnowgi.py":30:45)
#loc22 = loc("/home/admin/zy429782/fx_experiments/torch_aot_tool/dynamicLib_7622_gpu/l6/cl65xknsmhvdzvpivttvbp6f3osgfs6abk7h623mgjpqnufnowgi.py":31:18)
#loc23 = loc("/home/admin/zy429782/fx_experiments/torch_aot_tool/dynamicLib_7622_gpu/l6/cl65xknsmhvdzvpivttvbp6f3osgfs6abk7h623mgjpqnufnowgi.py":32:25)
#loc24 = loc("/home/admin/zy429782/fx_experiments/torch_aot_tool/dynamicLib_7622_gpu/l6/cl65xknsmhvdzvpivttvbp6f3osgfs6abk7h623mgjpqnufnowgi.py":32:36)
#loc25 = loc("/home/admin/zy429782/fx_experiments/torch_aot_tool/dynamicLib_7622_gpu/l6/cl65xknsmhvdzvpivttvbp6f3osgfs6abk7h623mgjpqnufnowgi.py":32:4)
