#loc = loc("/home/admin/zy429782/fx_experiments/torch_aot_tool/dynamicLib_7622_gpu_torch260/lx/clxhixd53bmknv4ofrzqvvhxd3bervjfc6pbihja35ckcexixua6.py":18:0)
#loc1 = loc(unknown)
module {
  tt.func public @triton_(%arg0: !tt.ptr<f32> {tt.divisibility = 16 : i32} loc("/home/admin/zy429782/fx_experiments/torch_aot_tool/dynamicLib_7622_gpu_torch260/lx/clxhixd53bmknv4ofrzqvvhxd3bervjfc6pbihja35ckcexixua6.py":18:0), %arg1: !tt.ptr<f32> {tt.divisibility = 16 : i32} loc("/home/admin/zy429782/fx_experiments/torch_aot_tool/dynamicLib_7622_gpu_torch260/lx/clxhixd53bmknv4ofrzqvvhxd3bervjfc6pbihja35ckcexixua6.py":18:0), %arg2: !tt.ptr<f32> {tt.divisibility = 16 : i32} loc("/home/admin/zy429782/fx_experiments/torch_aot_tool/dynamicLib_7622_gpu_torch260/lx/clxhixd53bmknv4ofrzqvvhxd3bervjfc6pbihja35ckcexixua6.py":18:0), %arg3: i32 {tt.divisibility = 16 : i32} loc("/home/admin/zy429782/fx_experiments/torch_aot_tool/dynamicLib_7622_gpu_torch260/lx/clxhixd53bmknv4ofrzqvvhxd3bervjfc6pbihja35ckcexixua6.py":18:0), %arg4: i32 {tt.divisibility = 16 : i32} loc("/home/admin/zy429782/fx_experiments/torch_aot_tool/dynamicLib_7622_gpu_torch260/lx/clxhixd53bmknv4ofrzqvvhxd3bervjfc6pbihja35ckcexixua6.py":18:0)) attributes {noinline = false} {
    %c16_i32 = arith.constant 16 : i32 loc(#loc1)
    %cst = arith.constant dense<1.600000e+01> : tensor<1x1xf32> loc(#loc1)
    %cst_0 = arith.constant dense<0.000000e+00> : tensor<1x16xf32> loc(#loc1)
    %0 = tt.get_program_id x : i32 loc(#loc2)
    %1 = arith.cmpi slt, %0, %arg3 : i32 loc(#loc3)
    %2 = tt.splat %1 : i1 -> tensor<1x1xi1> loc(#loc3)
    %3 = tt.make_range {end = 16 : i32, start = 0 : i32} : tensor<16xi32> loc(#loc4)
    %4 = tt.expand_dims %3 {axis = 0 : i32} : tensor<16xi32> -> tensor<1x16xi32> loc(#loc5)
    %5 = arith.muli %0, %c16_i32 : i32 loc(#loc6)
    %6 = tt.splat %5 : i32 -> tensor<1x16xi32> loc(#loc7)
    %7 = arith.addi %4, %6 : tensor<1x16xi32> loc(#loc7)
    %8 = tt.splat %arg0 : !tt.ptr<f32> -> tensor<1x16x!tt.ptr<f32>> loc(#loc8)
    %9 = tt.addptr %8, %7 : tensor<1x16x!tt.ptr<f32>>, tensor<1x16xi32> loc(#loc8)
    %10 = tt.splat %1 : i1 -> tensor<1x16xi1> loc(#loc9)
    %11 = tt.load %9, %10, %cst_0 : tensor<1x16x!tt.ptr<f32>> loc(#loc9)
    %12 = arith.select %10, %11, %cst_0 : tensor<1x16xi1>, tensor<1x16xf32> loc(#loc10)
    %13 = "tt.reduce"(%12) <{axis = 1 : i32}> ({
    ^bb0(%arg5: f32 loc(unknown), %arg6: f32 loc(unknown)):
      %26 = arith.addf %arg5, %arg6 : f32 loc(#loc29)
      tt.reduce.return %26 : f32 loc(#loc26)
    }) : (tensor<1x16xf32>) -> tensor<1xf32> loc(#loc26)
    %14 = tt.expand_dims %13 {axis = 1 : i32} : tensor<1xf32> -> tensor<1x1xf32> loc(#loc14)
    %15 = arith.divf %14, %cst : tensor<1x1xf32> loc(#loc15)
    %16 = tt.broadcast %15 : tensor<1x1xf32> -> tensor<1x16xf32> loc(#loc16)
    %17 = arith.subf %11, %16 : tensor<1x16xf32> loc(#loc16)
    %18 = arith.mulf %17, %17 : tensor<1x16xf32> loc(#loc17)
    %19 = arith.select %10, %18, %cst_0 : tensor<1x16xi1>, tensor<1x16xf32> loc(#loc18)
    %20 = "tt.reduce"(%19) <{axis = 1 : i32}> ({
    ^bb0(%arg5: f32 loc(unknown), %arg6: f32 loc(unknown)):
      %26 = arith.addf %arg5, %arg6 : f32 loc(#loc30)
      tt.reduce.return %26 : f32 loc(#loc28)
    }) : (tensor<1x16xf32>) -> tensor<1xf32> loc(#loc28)
    %21 = tt.expand_dims %20 {axis = 1 : i32} : tensor<1xf32> -> tensor<1x1xf32> loc(#loc20)
    %22 = tt.addptr %arg1, %0 : !tt.ptr<f32>, i32 loc(#loc21)
    %23 = tt.splat %22 : !tt.ptr<f32> -> tensor<1x1x!tt.ptr<f32>> loc(#loc21)
    tt.store %23, %15, %2 : tensor<1x1x!tt.ptr<f32>> loc(#loc22)
    %24 = tt.addptr %arg2, %0 : !tt.ptr<f32>, i32 loc(#loc23)
    %25 = tt.splat %24 : !tt.ptr<f32> -> tensor<1x1x!tt.ptr<f32>> loc(#loc23)
    tt.store %25, %21, %2 : tensor<1x1x!tt.ptr<f32>> loc(#loc24)
    tt.return loc(#loc25)
  } loc(#loc)
} loc(#loc)
#loc2 = loc("/home/admin/zy429782/fx_experiments/torch_aot_tool/dynamicLib_7622_gpu_torch260/lx/clxhixd53bmknv4ofrzqvvhxd3bervjfc6pbihja35ckcexixua6.py":21:28)
#loc3 = loc("/home/admin/zy429782/fx_experiments/torch_aot_tool/dynamicLib_7622_gpu_torch260/lx/clxhixd53bmknv4ofrzqvvhxd3bervjfc6pbihja35ckcexixua6.py":23:21)
#loc4 = loc("/home/admin/zy429782/fx_experiments/torch_aot_tool/dynamicLib_7622_gpu_torch260/lx/clxhixd53bmknv4ofrzqvvhxd3bervjfc6pbihja35ckcexixua6.py":24:26)
#loc5 = loc("/home/admin/zy429782/fx_experiments/torch_aot_tool/dynamicLib_7622_gpu_torch260/lx/clxhixd53bmknv4ofrzqvvhxd3bervjfc6pbihja35ckcexixua6.py":24:34)
#loc6 = loc("/home/admin/zy429782/fx_experiments/torch_aot_tool/dynamicLib_7622_gpu_torch260/lx/clxhixd53bmknv4ofrzqvvhxd3bervjfc6pbihja35ckcexixua6.py":29:39)
#loc7 = loc("/home/admin/zy429782/fx_experiments/torch_aot_tool/dynamicLib_7622_gpu_torch260/lx/clxhixd53bmknv4ofrzqvvhxd3bervjfc6pbihja35ckcexixua6.py":29:36)
#loc8 = loc("/home/admin/zy429782/fx_experiments/torch_aot_tool/dynamicLib_7622_gpu_torch260/lx/clxhixd53bmknv4ofrzqvvhxd3bervjfc6pbihja35ckcexixua6.py":29:30)
#loc9 = loc("/home/admin/zy429782/fx_experiments/torch_aot_tool/dynamicLib_7622_gpu_torch260/lx/clxhixd53bmknv4ofrzqvvhxd3bervjfc6pbihja35ckcexixua6.py":29:45)
#loc10 = loc("/home/admin/zy429782/fx_experiments/torch_aot_tool/dynamicLib_7622_gpu_torch260/lx/clxhixd53bmknv4ofrzqvvhxd3bervjfc6pbihja35ckcexixua6.py":33:33)
#loc11 = loc("/home/admin/zy429782/miniforge3/envs/torch_preview_0924/lib/python3.10/site-packages/triton/language/standard.py":267:36)
#loc12 = loc("/home/admin/zy429782/fx_experiments/torch_aot_tool/dynamicLib_7622_gpu_torch260/lx/clxhixd53bmknv4ofrzqvvhxd3bervjfc6pbihja35ckcexixua6.py":34:24)
#loc13 = loc("/home/admin/zy429782/miniforge3/envs/torch_preview_0924/lib/python3.10/site-packages/triton/language/standard.py":256:15)
#loc14 = loc("/home/admin/zy429782/fx_experiments/torch_aot_tool/dynamicLib_7622_gpu_torch260/lx/clxhixd53bmknv4ofrzqvvhxd3bervjfc6pbihja35ckcexixua6.py":34:27)
#loc15 = loc("/home/admin/zy429782/fx_experiments/torch_aot_tool/dynamicLib_7622_gpu_torch260/lx/clxhixd53bmknv4ofrzqvvhxd3bervjfc6pbihja35ckcexixua6.py":37:19)
#loc16 = loc("/home/admin/zy429782/fx_experiments/torch_aot_tool/dynamicLib_7622_gpu_torch260/lx/clxhixd53bmknv4ofrzqvvhxd3bervjfc6pbihja35ckcexixua6.py":38:19)
#loc17 = loc("/home/admin/zy429782/fx_experiments/torch_aot_tool/dynamicLib_7622_gpu_torch260/lx/clxhixd53bmknv4ofrzqvvhxd3bervjfc6pbihja35ckcexixua6.py":39:20)
#loc18 = loc("/home/admin/zy429782/fx_experiments/torch_aot_tool/dynamicLib_7622_gpu_torch260/lx/clxhixd53bmknv4ofrzqvvhxd3bervjfc6pbihja35ckcexixua6.py":41:35)
#loc19 = loc("/home/admin/zy429782/fx_experiments/torch_aot_tool/dynamicLib_7622_gpu_torch260/lx/clxhixd53bmknv4ofrzqvvhxd3bervjfc6pbihja35ckcexixua6.py":42:26)
#loc20 = loc("/home/admin/zy429782/fx_experiments/torch_aot_tool/dynamicLib_7622_gpu_torch260/lx/clxhixd53bmknv4ofrzqvvhxd3bervjfc6pbihja35ckcexixua6.py":42:29)
#loc21 = loc("/home/admin/zy429782/fx_experiments/torch_aot_tool/dynamicLib_7622_gpu_torch260/lx/clxhixd53bmknv4ofrzqvvhxd3bervjfc6pbihja35ckcexixua6.py":43:25)
#loc22 = loc("/home/admin/zy429782/fx_experiments/torch_aot_tool/dynamicLib_7622_gpu_torch260/lx/clxhixd53bmknv4ofrzqvvhxd3bervjfc6pbihja35ckcexixua6.py":43:37)
#loc23 = loc("/home/admin/zy429782/fx_experiments/torch_aot_tool/dynamicLib_7622_gpu_torch260/lx/clxhixd53bmknv4ofrzqvvhxd3bervjfc6pbihja35ckcexixua6.py":44:25)
#loc24 = loc("/home/admin/zy429782/fx_experiments/torch_aot_tool/dynamicLib_7622_gpu_torch260/lx/clxhixd53bmknv4ofrzqvvhxd3bervjfc6pbihja35ckcexixua6.py":44:37)
#loc25 = loc("/home/admin/zy429782/fx_experiments/torch_aot_tool/dynamicLib_7622_gpu_torch260/lx/clxhixd53bmknv4ofrzqvvhxd3bervjfc6pbihja35ckcexixua6.py":44:4)
#loc26 = loc(callsite(#loc11 at #loc12))
#loc27 = loc(callsite(#loc13 at #loc11))
#loc28 = loc(callsite(#loc11 at #loc19))
#loc29 = loc(callsite(#loc27 at #loc12))
#loc30 = loc(callsite(#loc27 at #loc19))
