#loc = loc("/home/admin/zy429782/fx_experiments/torch_aot_tool/dynamicLib_7622_gpu_torch260/3p/c3przjdjlik7lmyll44jybubjecan53xx6p2uhtfargn4vpvgsl7.py":18:0)
module {
  tt.func public @triton_(%arg0: !tt.ptr<f32> {tt.divisibility = 16 : i32} loc("/home/admin/zy429782/fx_experiments/torch_aot_tool/dynamicLib_7622_gpu_torch260/3p/c3przjdjlik7lmyll44jybubjecan53xx6p2uhtfargn4vpvgsl7.py":18:0), %arg1: !tt.ptr<f32> {tt.divisibility = 16 : i32} loc("/home/admin/zy429782/fx_experiments/torch_aot_tool/dynamicLib_7622_gpu_torch260/3p/c3przjdjlik7lmyll44jybubjecan53xx6p2uhtfargn4vpvgsl7.py":18:0), %arg2: i32 loc("/home/admin/zy429782/fx_experiments/torch_aot_tool/dynamicLib_7622_gpu_torch260/3p/c3przjdjlik7lmyll44jybubjecan53xx6p2uhtfargn4vpvgsl7.py":18:0)) attributes {noinline = false} {
    %cst = arith.constant dense<0.00999999977> : tensor<512xf32> loc(#loc1)
    %cst_0 = arith.constant dense<0.000000e+00> : tensor<512xf32> loc(#loc1)
    %cst_1 = arith.constant dense<172> : tensor<512xi32> loc(#loc1)
    %c512_i32 = arith.constant 512 : i32 loc(#loc1)
    %0 = tt.get_program_id x : i32 loc(#loc2)
    %1 = arith.muli %0, %c512_i32 : i32 loc(#loc3)
    %2 = tt.make_range {end = 512 : i32, start = 0 : i32} : tensor<512xi32> loc(#loc4)
    %3 = tt.splat %1 : i32 -> tensor<512xi32> loc(#loc5)
    %4 = arith.addi %3, %2 : tensor<512xi32> loc(#loc5)
    %5 = tt.splat %arg2 : i32 -> tensor<512xi32> loc(#loc6)
    %6 = arith.cmpi slt, %4, %5 : tensor<512xi32> loc(#loc6)
    %7 = arith.remsi %4, %cst_1 : tensor<512xi32> loc(#loc7)
    %8 = tt.splat %arg0 : !tt.ptr<f32> -> tensor<512x!tt.ptr<f32>> loc(#loc8)
    %9 = tt.addptr %8, %4 : tensor<512x!tt.ptr<f32>>, tensor<512xi32> loc(#loc8)
    %10 = tt.load %9, %6 : tensor<512x!tt.ptr<f32>> loc(#loc9)
    %11 = tt.splat %arg1 : !tt.ptr<f32> -> tensor<512x!tt.ptr<f32>> loc(#loc10)
    %12 = tt.addptr %11, %7 : tensor<512x!tt.ptr<f32>>, tensor<512xi32> loc(#loc10)
    %13 = tt.load %12, %6 evictionPolicy = evict_last : tensor<512x!tt.ptr<f32>> loc(#loc11)
    %14 = arith.addf %10, %13 : tensor<512xf32> loc(#loc12)
    %15 = arith.cmpf ogt, %14, %cst_0 : tensor<512xf32> loc(#loc13)
    %16 = arith.mulf %14, %cst : tensor<512xf32> loc(#loc14)
    %17 = arith.select %15, %14, %16 : tensor<512xi1>, tensor<512xf32> loc(#loc15)
    tt.store %9, %17, %6 : tensor<512x!tt.ptr<f32>> loc(#loc16)
    tt.return loc(#loc17)
  } loc(#loc)
} loc(#loc)
#loc1 = loc(unknown)
#loc2 = loc("/home/admin/zy429782/fx_experiments/torch_aot_tool/dynamicLib_7622_gpu_torch260/3p/c3przjdjlik7lmyll44jybubjecan53xx6p2uhtfargn4vpvgsl7.py":19:28)
#loc3 = loc("/home/admin/zy429782/fx_experiments/torch_aot_tool/dynamicLib_7622_gpu_torch260/3p/c3przjdjlik7lmyll44jybubjecan53xx6p2uhtfargn4vpvgsl7.py":19:33)
#loc4 = loc("/home/admin/zy429782/fx_experiments/torch_aot_tool/dynamicLib_7622_gpu_torch260/3p/c3przjdjlik7lmyll44jybubjecan53xx6p2uhtfargn4vpvgsl7.py":20:36)
#loc5 = loc("/home/admin/zy429782/fx_experiments/torch_aot_tool/dynamicLib_7622_gpu_torch260/3p/c3przjdjlik7lmyll44jybubjecan53xx6p2uhtfargn4vpvgsl7.py":20:23)
#loc6 = loc("/home/admin/zy429782/fx_experiments/torch_aot_tool/dynamicLib_7622_gpu_torch260/3p/c3przjdjlik7lmyll44jybubjecan53xx6p2uhtfargn4vpvgsl7.py":21:21)
#loc7 = loc("/home/admin/zy429782/fx_experiments/torch_aot_tool/dynamicLib_7622_gpu_torch260/3p/c3przjdjlik7lmyll44jybubjecan53xx6p2uhtfargn4vpvgsl7.py":23:18)
#loc8 = loc("/home/admin/zy429782/fx_experiments/torch_aot_tool/dynamicLib_7622_gpu_torch260/3p/c3przjdjlik7lmyll44jybubjecan53xx6p2uhtfargn4vpvgsl7.py":24:34)
#loc9 = loc("/home/admin/zy429782/fx_experiments/torch_aot_tool/dynamicLib_7622_gpu_torch260/3p/c3przjdjlik7lmyll44jybubjecan53xx6p2uhtfargn4vpvgsl7.py":24:39)
#loc10 = loc("/home/admin/zy429782/fx_experiments/torch_aot_tool/dynamicLib_7622_gpu_torch260/3p/c3przjdjlik7lmyll44jybubjecan53xx6p2uhtfargn4vpvgsl7.py":25:30)
#loc11 = loc("/home/admin/zy429782/fx_experiments/torch_aot_tool/dynamicLib_7622_gpu_torch260/3p/c3przjdjlik7lmyll44jybubjecan53xx6p2uhtfargn4vpvgsl7.py":25:35)
#loc12 = loc("/home/admin/zy429782/fx_experiments/torch_aot_tool/dynamicLib_7622_gpu_torch260/3p/c3przjdjlik7lmyll44jybubjecan53xx6p2uhtfargn4vpvgsl7.py":26:18)
#loc13 = loc("/home/admin/zy429782/fx_experiments/torch_aot_tool/dynamicLib_7622_gpu_torch260/3p/c3przjdjlik7lmyll44jybubjecan53xx6p2uhtfargn4vpvgsl7.py":28:18)
#loc14 = loc("/home/admin/zy429782/fx_experiments/torch_aot_tool/dynamicLib_7622_gpu_torch260/3p/c3przjdjlik7lmyll44jybubjecan53xx6p2uhtfargn4vpvgsl7.py":30:18)
#loc15 = loc("/home/admin/zy429782/fx_experiments/torch_aot_tool/dynamicLib_7622_gpu_torch260/3p/c3przjdjlik7lmyll44jybubjecan53xx6p2uhtfargn4vpvgsl7.py":31:32)
#loc16 = loc("/home/admin/zy429782/fx_experiments/torch_aot_tool/dynamicLib_7622_gpu_torch260/3p/c3przjdjlik7lmyll44jybubjecan53xx6p2uhtfargn4vpvgsl7.py":32:39)
#loc17 = loc("/home/admin/zy429782/fx_experiments/torch_aot_tool/dynamicLib_7622_gpu_torch260/3p/c3przjdjlik7lmyll44jybubjecan53xx6p2uhtfargn4vpvgsl7.py":32:4)
